models/can7_epoch10_final.pt (torch_old, 473000 bytes, 54 tensors)

conv1.weight f4 [24, 10, 3, 3]
000000 62 20 0d 3d 8e 92 b2 3d 25 7d 85 bc 19 6c a0 bc
       0.03445471 0.08719359 -0.016295025 -0.019582795
000010 9e 50 48 bd 28 34 4a 3d 1f 7d 55 3d 20 ee b4 bd
       -0.048905008 0.049366146 0.052121278 -0.08834481
000020 00 10 a3 bd 7b f5 69 3c 0b 68 19 be 07 2b 06 bd
       -0.07962036 0.0142797185 -0.14981095 -0.032755878
000030 32 6c 52 3d 8a cf 5c 3c c6 93 85 bd c8 a9 e3 bd
       0.051372714 0.013477216 -0.06522326 -0.111163676
000040 2a 40 e9 bc 64 64 f9 bd ca 44 2c bd 14 76 83 bd
       -0.028472979 -0.12177351 -0.04205779 -0.06419006
000050 22 d1 30 bd 0f c2 c8 3c c3 6b 87 3d 97 7c d9 3d
       -0.043168195 0.024506597 0.06612351 0.10619467
000060 6c 76 53 bd 02 6d 1e bd b7 f3 cb 3c 0b b6 0d bd
       -0.051626608 -0.038678177 0.024896486 -0.034597438
000070 90 da e7 3d 8c d6 94 bd d4 98 b4 bd a2 73 42 bc
       0.11320984 -0.07267484 -0.08818212 -0.011868389
000080 72 c8 1b 3d e1 58 e3 3c 74 6e d6 bb ea 45 29 3d
       0.038032956 0.027752342 -0.0065439288 0.04132644
000090 2b b6 2b be e0 0a 73 be a2 1f f9 bd 71 f4 43 be
       -0.1676871 -0.23734617 -0.121642366 -0.19136216
0000a0 ed 12 4d be b8 28 8b bd 56 82 4d be 09 ef 45 be
       -0.20026751 -0.06794876 -0.2006925 -0.19329466
0000b0 06 d7 3e be 19 a7 b1 3d db 84 1f bc ec 64 ba bd
       -0.18636712 0.086744495 -0.009736265 -0.091012806
0000c0 d7 22 15 bd 79 22 af 3c 10 b5 df 3d 5a 9d e8 3d
       -0.03641018 0.021378743 0.10923207 0.113581374
0000d0 03 bc 55 3d a9 7f d0 bd 2f d1 53 bd 9a 4c bd bc
       0.052181255 -0.10180599 -0.051713165 -0.023107816
0000e0 f1 39 47 3d 8a 8f a8 bd 1f f6 b3 bc 37 14 e2 3c
       0.04863924 -0.08230503 -0.021967946 0.02759753
0000f0 56 d2 5a 3d 83 23 85 3d e5 b4 d6 bd 84 38 f8 bd
       0.05342325 0.06500914 -0.10483722 -0.121201545
000100 c2 27 7f bd 22 9e 9e 3c 7a de 13 3d da 53 0d be
       -0.062293775 0.019362513 0.036100842 -0.13801518
000110 83 2b ee bd e7 b5 93 bc a9 65 f1 bd 54 9e 24 3d
       -0.11629393 -0.018031074 -0.11786968 0.040190056
000120 59 25 98 bd da 3b 3f bc dd 47 ad bd 69 93 47 3d
       -0.074289985 -0.011671985 -0.084609725 0.048724566
000130 96 8d 8d bd 3e 69 ab 3c b1 eb d2 3d 37 9c 9f 3d
       -0.06911771 0.020924207 0.10298861 0.077934675
000140 d4 1e 81 bd 03 61 44 3d af 34 db bd b9 05 9b 3d
       -0.06304708 0.04794408 -0.10703408 0.07569451
000150 c5 ea 21 bd 96 05 9a bd 47 96 71 bd 44 a7 6b 3c
       -0.039530534 -0.07520597 -0.058981206 0.014383141
000160 05 4d 59 3d 25 d0 72 bd ea 07 d9 3d ee 84 38 3e
       0.053051967 -0.059280533 0.105972126 0.18019459
000170 52 05 39 3d 7a 23 40 3e eb 3f 1c 3e 83 59 06 3e
       0.04517109 0.18763533 0.15258758 0.13120084
000180 dc d4 dc 3c 6c 4c c4 3d 1a 26 33 bc f3 38 cd bd
       0.026956968 0.09584889 -0.010934377 -0.10020628
000190 c3 00 dd 3b c2 76 08 3d 17 0a 81 3d 8a 1f 81 bd
       0.0067444756 0.03331638 0.063007526 -0.06304844
0001a0 49 59 2f bd d7 cc 73 bd e1 01 cf bd 07 94 77 3d
       -0.04280976 -0.059521522 -0.1010778 0.060443904
0001b0 0e d3 42 3d e3 ce 99 bd fe 15 81 bd 27 6f 79 bd
       0.04756456 -0.07510164 -0.06303023 -0.06089702
0001c0 b9 db bb bd bb cf 5d 3d 3d 9a e7 3d 81 f1 5d bd
       -0.09172768 0.054153185 0.113087155 -0.054185394
0001d0 72 6b d5 3d cc 9a 84 3d 11 0f ac 3d 66 1c bd 3d
       0.10420884 0.06474838 0.08401311 0.09233932
0001e0 33 59 bd 3c a5 94 bb bc 0e bf 9e 3d eb 2a 8d 3d
       0.023113823 -0.022898028 0.077512845 0.068929516
0001f0 f7 88 65 bd ab 19 f1 3d 51 9e 47 3d b9 41 15 bd
       -0.056038823 0.11772474 0.048734967 -0.03643963
000200 d5 d7 8c bd 5e 0d 30 3c 3f ac 0b bd fe 02 f4 3b
       -0.06877104 0.0107453745 -0.034099814 0.0074466458
000210 23 8b a7 3c fe 3a b5 bd 23 ad bb 3c 23 3b b3 bd
       0.020452088 -0.088491425 0.022909706 -0.08751514
000220 cc 68 71 3d 6d 08 11 be bd 73 29 3c 8e ba 14 bd
       0.058937833 -0.1416337 0.010342536 -0.036310725
000230 46 a5 19 bd f5 b2 53 bd aa df 24 be fa e1 31 bd
       -0.037511133 -0.05168434 -0.16100946 -0.0434284
000240 53 2a cf bc 65 6d 9d 3d 65 28 bd bc 2f bd b0 3d
       -0.025288736 0.07686881 -0.02309055 0.08629834
000250 7d 28 5f 3c c9 21 a1 bd 2b 3f 52 3d 3c 48 44 3d
       0.013620493 -0.07867772 0.051329773 0.04792045
000260 8d bd cb 3c 06 eb 7e bd 82 a9 d4 3b 5f d6 d9 3b
       0.024870658 -0.062235855 0.0064899335 0.0066478695
000270 9f f1 90 3d d7 fd 0a 3e ef 4c 64 3d f9 66 e3 bc
       0.070773356 0.13573395 0.055737432 -0.027759062
000280 a2 0e 11 3e a2 20 27 bc 6b df 5d 3d da c8 74 3d
       0.14165738 -0.010200651 0.054168146 0.05976186
000290 33 83 a1 3c 26 a6 97 bd eb 34 c6 3b e6 2e e4 bd
       0.019715881 -0.07404737 0.006048789 -0.11141758
0002a0 d4 43 27 bd 54 78 96 bd 4b e8 a6 3d 2e af 2b bd
       -0.04083617 -0.073471695 0.08149775 -0.04191511
0002b0 29 8c a1 bd d1 77 d8 bb af df 63 bd ef 8c 9d 3d
       -0.078880616 -0.00660608 -0.055633243 0.076928966
0002c0 f1 87 67 3c b3 6c 54 3d 76 3c 2c bd 98 9c af bd
       0.014131532 0.051861476 -0.042049848 -0.0857479
0002d0 f5 0c 9d bd 15 c5 2c be 10 1b 84 bd ff 4c 6d bc
       -0.07668487 -0.16872056 -0.06450474 -0.014483689
0002e0 b4 07 3a be 08 77 57 be 09 87 41 3d 77 37 2f be
       -0.18167001 -0.210415 0.04724792 -0.17111002
0002f0 4f d8 45 bd 19 92 6c bb 92 16 ec 3c 3b e3 c2 3d
       -0.04830199 -0.0036097823 0.028819356 0.09515997
000300 c5 18 9a 3c 6f 59 49 be 48 92 ca bd d3 b6 17 3e
       0.01881064 -0.19663022 -0.09891182 0.14815836
000310 4a 61 f8 3d 1f e7 35 bc 1d 8c a1 3d 80 59 bd bd
       0.121279314 -0.011102467 0.078880526 -0.092455864
000320 69 b4 b7 3d c4 57 f8 bc 13 d3 05 be 1f e3 14 bd
       0.089699574 -0.030315287 -0.130688 -0.036349412
000330 e9 3a 38 bd 53 6c 32 3d be 9d bd 3c 44 47 42 bc
       -0.044978056 0.043560337 0.023146506 -0.011857811
000340 0d 0f e2 bd c7 96 02 be 52 63 6e bd 92 79 d6 bd
       -0.11038027 -0.1275283 -0.058200188 -0.104724064
000350 53 b2 51 bd 5d f9 6c 3d e3 cc ee bc ab 85 ae bd
       -0.051195454 0.057855 -0.029150432 -0.08521589
000360 40 66 92 3d 75 09 96 bd de cf 8b 3c 47 03 28 bd
       0.07148409 -0.073260225 0.017066892 -0.04101875
000370 35 32 4b bc 85 3d 07 3e ce 5e 2b bd 3b 9c 02 3e
       -0.012402107 0.13207062 -0.04183846 0.1275491
000380 f8 e1 d0 3d 2e 99 23 3d af 70 41 bd a7 9b 1f 3d
       0.1019935 0.039941005 -0.047226604 0.0389668
000390 3b 59 10 3d 14 bd e0 bd fa 21 ea bc 7a 95 18 bd
       0.035241347 -0.10973564 -0.028580654 -0.037251927
0003a0 5b 99 b6 bc 9c ec 65 3b 01 cc 32 bd 8d 53 b0 bd
       -0.022289922 0.0035083657 -0.043651585 -0.08609686
0003b0 74 2b b8 bc c8 3c 03 be 7e c0 e8 bd e8 76 05 3c
       -0.022481658 -0.12816155 -0.1136484 0.008146025
0003c0 37 56 49 3d 40 4f 5d 3d 30 9a 86 bd ac 96 85 3c
       0.049154487 0.054030657 -0.06572378 0.016307198
0003d0 b4 d8 f7 3c 0a 74 d5 bd 1d 65 4c bd 01 94 b3 3c
       0.0302547 -0.10422523 -0.049901117 0.02192116
0003e0 6e 5a b2 3d d7 0a e0 bd 5b ef 0e 3c 49 a4 bb bd
       0.08708654 -0.109395675 0.008724059 -0.09162194
0003f0 70 4c 02 3c c9 d2 e7 bd f8 6a 47 3d be ae bf 3d
       0.007952794 -0.11319501 0.048685998 0.09359501

conv1.bias f4 [24]
000000 0a 97 1b 3c 26 76 26 be 12 89 7e 3e 82 9d 15 3e
       0.00949646 -0.16256008 0.24856976 0.14610866
000010 f6 71 c1 3d c5 f5 3f 3e 02 1a 4a 3e b9 52 06 3e
       0.094455644 0.18746097 0.19736484 0.13117494
000020 e1 7b 88 be 46 03 b8 bc 7f 08 3f be 66 2a 98 3c
       -0.26657012 -0.022462498 -0.18655585 0.018574905
000030 57 df 2c 3d a5 e2 04 3d b4 e9 56 bd 79 90 84 bc
       0.04220518 0.032442708 -0.05246897 -0.016182171
000040 8f f1 18 bd ff 99 99 be c8 35 7c 3d f0 e5 e9 bb
       -0.037339743 -0.30000302 0.061574727 -0.0071380064
000050 67 a7 6e bd 43 ac ed bd b9 1c 9f be 3b 67 83 be
       -0.058265116 -0.11605122 -0.310766 -0.25664696

conv2.weight f4 [24, 24, 3, 3]
000000 51 63 0a bc ae cb 9e bc ec bc 02 3d fb 46 3d bd
       -0.00844653 -0.019384231 0.03191845 -0.04621027
000010 a7 11 b8 3c 59 ee 67 bc 2a 0d 21 bd 8d 2c 92 bd
       0.022469355 -0.014155948 -0.039319195 -0.07137404
000020 c4 b8 35 3d ac e8 27 bd ac c3 d5 3b 30 be 13 bd
       0.04436566 -0.040993378 0.00652357 -0.03607005
000030 29 77 c3 bd 59 12 0b be 8d a1 94 bd 80 1f 63 3a
       -0.09544212 -0.13581218 -0.07257376 0.00086640567
000040 0e 34 0d be b1 a7 76 bd 98 7e 54 bd 0a 74 78 3d
       -0.13789389 -0.060218517 -0.05187854 0.06065754
000050 6c 5b b9 3c 77 84 a6 ba ac d7 6e 3e 6c e9 df 3c
       0.022626601 -0.0012704273 0.2332446 0.027332984
000060 28 22 9f 3d 73 94 a3 3c 14 8d a7 3c a1 8c 1b 3d
       0.07770187 0.019968247 0.020453013 0.03797591
000070 44 6c 97 3d 20 77 d7 3d 5d 91 73 3d f5 32 b5 3d
       0.07393697 0.10520768 0.0594648 0.0884761
000080 b1 ac 0a 3c 57 78 55 3d 4b 87 ea 3d 52 61 51 3d
       0.008464024 0.05211672 0.11451586 0.051118203
000090 e7 b4 10 bc 66 73 82 3c 61 74 5f 3c de 92 19 3d
       -0.008832193 0.015924167 0.013638587 0.03749358
0000a0 69 61 01 3e 6a f0 d7 3d 17 7a d8 bc 10 ee d5 3c
       0.12634815 0.10543902 -0.026425404 0.026114494
0000b0 d7 c0 39 3d 3d 80 37 3d 9f 22 b7 3b 81 a0 72 bc
       0.045349922 0.044800032 0.005588844 -0.014808775
0000c0 a0 20 7a 3d 89 21 ef 3d 8c c5 de 3d 20 b9 88 bc
       0.06106627 0.11676318 0.10877523 -0.016689837
0000d0 a8 6e 85 3d 9e 88 27 3c 85 1e 4f bb aa e5 32 bd
       0.06515247 0.010225443 -0.0031603884 -0.043676056
0000e0 ea 69 42 3d 47 88 8e 3c c8 b9 bc 3d 4a d0 7a 3b
       0.04746429 0.017398966 0.092151225 0.0038271123
0000f0 8c ae fd 3c 8d 8b b4 3c d3 6f 72 bc 5a 10 3d 3c
       0.03096702 0.0220392 -0.014797169 0.011539543
000100 77 4f 7f 3d b9 a0 9e bd cc 90 76 bd b2 67 41 3d
       0.062331643 -0.07745499 -0.060196683 0.047218032
000110 7c 14 9d bd 4f 7b f3 bb 82 f9 49 bd 26 ed 2c 3d
       -0.07669923 -0.007430471 -0.049310215 0.04221835
000120 13 64 06 bd 6a 65 c6 bd 14 fd a2 3c 29 c4 ab bd
       -0.032810282 -0.09687312 0.019896068 -0.08387024
000130 43 bb 4c be 58 59 05 be a2 5d 8d bc 61 e7 11 be
       -0.1999331 -0.13022363 -0.017256562 -0.1424842
000140 77 8c 3c bd 05 18 1b 3c ce 95 80 3c ad 0c d2 bc
       -0.046032395 0.009466176 0.015696432 -0.02564081
000150 7a ab 01 bd da 9a e7 bd 40 d5 0e bc 75 e9 60 3c
       -0.031657673 -0.113088325 -0.008717835 0.0137275355
000160 6e 64 35 bd 6f fd 9f 3d d8 5a 1e bc da 02 1b 3d
       -0.04428523 0.078120105 -0.0096652135 0.037844516
000170 c2 cc 58 bc ba f9 8e bd 83 46 82 bc 78 26 80 bd
       -0.013232412 -0.06981225 -0.015902763 -0.06257337
000180 42 a2 8e bd 4b ec 19 bd 4b 3b 3d 3c 41 ea 2d 3d
       -0.06964542 -0.037578862 0.011549781 0.04245973
000190 f7 96 06 3e 54 d9 bc 3c b9 5b 07 3e c1 8e be 3d
       0.13143526 0.023052849 0.13218583 0.09304572
0001a0 ae 68 0d 3d 01 5a 2e 3d 7c 36 c0 3d 9a 89 89 3c
       0.03452366 0.042566303 0.09385392 0.016789246
0001b0 d8 bd a3 bc e4 ee cb bc 07 76 10 bc 0d d3 54 3c
       -0.019987985 -0.024894185 -0.008817202 0.012989772
0001c0 83 09 50 bd f5 f4 ab bb 7d 66 2f bd d4 4e 8a bb
       -0.05079032 -0.005247707 -0.04282235 -0.004220823
0001d0 27 1e 91 bc 94 fa 94 bc 60 b0 72 bc 62 18 8f bd
       -0.017714573 -0.018185891 -0.014812559 -0.069870725
0001e0 9f c3 07 be 6a f8 9f bd b2 77 49 bd cb fb da 3c
       -0.13258217 -0.07811053 -0.049186416 0.026731392
0001f0 95 1d 7f 3b da b5 9a bd 5c c6 e5 3c 0b 8e 3e bd
       0.0038927544 -0.07554217 0.028048687 -0.04652218
000200 7f 02 a9 bd c8 ec 9a bd 23 75 c7 3d c5 f5 77 3b
       -0.08252429 -0.07564694 0.09739139 0.00378357
000210 2f 60 92 bc 05 23 e3 3b c0 7c 29 bd 78 cf d3 3c
       -0.01786813 0.006931665 -0.041378736 0.025855765
000220 ba 43 90 bd 63 da 32 bd 1e 47 ed 3c cf a6 66 bc
       -0.07044168 -0.0436653 0.028964575 -0.014077856
000230 d5 10 8b bc de af 4a bd a1 e8 dc bd e2 f6 2c 3d
       -0.0169758 -0.049484126 -0.10786558 0.042227633
000240 4f f2 c0 bb 2b 9f d7 3b 39 5e 94 3d 95 a2 1d bd
       -0.0058882604 0.0065802536 0.07244534 -0.03848513
000250 7e f2 a1 bd 7f 15 4e 3d 95 18 a0 3d d0 fd 8c 3c
       -0.0790758 0.05031347 0.07817189 0.017210871
000260 d9 ca f5 3c f9 8f c1 3c 5c 63 99 3c c3 87 fe 3c
       0.030003952 0.023628222 0.018724136 0.031070596
000270 84 25 9c bb 6d 7b 74 3d 44 6b 54 bb 66 0a bc 3d
       -0.0047652144 0.05968802 -0.0032412568 0.09181671
000280 ff 52 20 3c 45 29 34 3d bb a5 1e bc 1f 93 af bd
       0.009785413 0.04398467 -0.009683068 -0.08572983
000290 61 6a 5c bb 6d 63 63 bd f1 2c b2 be 1c 2d d0 3c
       -0.0033632743 -0.05551474 -0.34799913 0.025412135
0002a0 f0 12 2d 3d 0b 88 4f bd 92 b5 92 bc 46 b5 b0 bd
       0.04225439 -0.05066685 -0.017908845 -0.08628325
0002b0 2c 16 bd 3c 71 e4 75 bd 45 0b 10 3d b4 8c 10 bd
       0.023081861 -0.06003231 0.035166997 -0.035290435
0002c0 d8 95 6a 3d 0e eb 92 bd 2e aa ff 3c 84 50 b9 bc
       0.05727181 -0.071737394 0.031209078 -0.0226214
0002d0 88 7d a0 3c c9 5f f5 3d fc b5 be bc 5d 78 a6 3d
       0.019591108 0.1198116 -0.023280136 0.08128426
0002e0 51 83 af bc 81 16 b6 3d 88 e5 cf bc 21 cb bd 39
       -0.021424921 0.08891011 -0.025378004 0.00036200232
0002f0 8b 3b b5 3d ed f5 10 bd 33 ce 8a 3c ad e7 81 3d
       0.088492475 -0.035390783 0.016944027 0.06343017
000300 42 48 57 3d bb f2 14 be a6 ba 85 3d 2a e8 4f 3d
       0.052559145 -0.1454572 0.06529741 0.05075852
000310 b2 1c 72 3d 12 da 84 3d 73 fd 92 bc ac e3 28 bc
       0.059109397 0.06486906 -0.01794312 -0.010308187
000320 4a 40 5d bd 7a f0 01 3c 39 d8 13 3d f7 bd 4f 3d
       -0.05401639 0.007930869 0.036094878 0.050718274
000330 8f f0 52 3c 95 b6 80 3c b0 25 09 3c fb 90 10 3d
       0.012874736 0.015712062 0.008370802 0.035294514
000340 00 e5 2c bd 7e 18 7b bd e6 c7 84 3d 62 7d 12 3c
       -0.04221058 -0.061302654 0.0648344 0.008941026
000350 5a cc c7 bc 3e 2e c7 bd 15 12 1f 3c 9c 3c 01 bd
       -0.024389435 -0.09725617 0.009708901 -0.031551942
000360 4d 05 0b bc be 05 09 be 51 9d b6 bc 51 88 40 3c
       -0.0084851505 -0.13381097 -0.022291811 0.01175125
000370 01 1e 48 bd 4a fd 3a bc d0 bb c0 3c 4b 3c f6 bd
       -0.04885674 -0.011412928 0.023527056 -0.12023219
000380 9b 80 98 bd d1 76 90 bd 84 eb 32 3d f1 c8 8e bd
       -0.074464045 -0.070539124 0.043681636 -0.0697192
000390 a1 a1 a2 3c ac b7 6d 3e 24 58 1d 3e 0e 6e e7 3c
       0.019852461 0.23214597 0.15365654 0.02825072
0003a0 22 2b 52 3d 46 62 60 bd 4d e4 92 bd 39 2a 15 be
       0.051310666 -0.05478122 -0.07172451 -0.14566888
0003b0 0d 65 98 bd 65 1c 2a be bb fb ee be 4e 99 c9 bc
       -0.07441149 -0.16612394 -0.4667643 -0.024609234
0003c0 7b c3 e0 bd 91 75 2e be da 36 42 bd a9 df 8f 3d
       -0.10974785 -0.17037036 -0.04741559 0.07025082
0003d0 88 0f 26 bd 5c ed 90 3d 7d da 30 3c ae ce 40 bd
       -0.040542156 0.07076523 0.010794279 -0.047072105
0003e0 43 16 56 3c f3 c1 aa bc ba 23 1d bc 38 f5 e2 3c
       0.013066831 -0.020844435 -0.009591037 0.02770482
0003f0 f3 98 2f 3d fa 44 8c bd 35 d6 12 bb 42 84 be bb
       0.042870473 -0.06849094 -0.002240551 -0.005814106

conv2.bias f4 [24]
000000 10 28 46 3e dd 63 f9 3b f4 27 22 bb ed e2 ed 3c
       0.1935122 0.0076107816 -0.0024743052 0.02903887
000010 11 8f 1d be 21 59 41 3d 7a bf 40 3c 5a a3 50 3c
       -0.15386607 0.04720414 0.011764402 0.012734259
000020 36 35 6e 3d f3 8f 30 be 23 57 54 be 8d f0 d1 bd
       0.058156215 -0.17242412 -0.20736365 -0.102509595
000030 61 fd 02 be 7e 83 3a 3d bd 82 4c be bc 54 ac bd
       -0.12791969 0.045535557 -0.19971748 -0.08414599
000040 59 a1 64 3d 42 1c 3d bd 7c ae 5b 3d 07 fe 14 3e
       0.055817936 -0.046169527 0.0536332 0.14550029
000050 e2 4b 98 bd 01 c8 b5 bc e0 9c 04 bd aa 8a 1c 3e
       -0.074363485 -0.022190096 -0.03237617 0.15287271

conv3.weight f4 [24, 24, 3, 3]
000000 db e5 cc bb 94 9f 00 3d 5b 38 a7 bd 0b 1d 88 bd
       -0.006252987 0.031402186 -0.08165046 -0.066461645
000010 dd f7 4a 3e 42 fe 12 3c 02 4a 6e 3c 0e ba 38 bd
       0.19821115 0.008971753 0.014544012 -0.04509931
000020 fc 41 c7 3b 52 af cb bc 1f f8 71 3d 90 7e 09 3d
       0.006080864 -0.024863873 0.059074517 0.033567965
000030 92 3a a3 3b ba ff 80 be 85 47 d0 bb 66 8d 93 3c
       0.0049813474 -0.25195104 -0.006356182 0.01801176
000040 d9 57 12 3d d5 97 07 3d ea a6 df 3b ed 9c 58 3d
       0.03572831 0.033103783 0.0068253176 0.05288403
000050 5e d4 2d bd 84 63 73 3d 5b 87 af 3d e0 32 b0 3d
       -0.042438857 0.059421077 0.08570739 0.08603454
000060 5c 1a f1 ba e9 a5 68 bc d5 4e 12 3d 7c e1 93 bc
       -0.0018394697 -0.014199712 0.03571971 -0.018051855
000070 1e 30 bf 3c 29 30 46 bd 2d 17 b0 bc c5 b7 34 3e
       0.023338374 -0.048385773 -0.021495426 0.17648228
000080 bf 04 87 3d 51 29 7e bb 8b 41 52 3c 32 b3 1b bd
       0.06592702 -0.003878195 0.0128330095 -0.03801269
000090 49 b7 a0 3d 7a 33 39 bc 03 cb 22 3e 06 06 93 bb
       0.07847459 -0.011303777 0.15897755 -0.004486802
0000a0 cb 3e 99 bd 72 94 64 bc 50 e6 0b 3d 03 5b 30 3d
       -0.0748268 -0.013951408 0.03415519 0.043055546
0000b0 1a d2 b9 3d 4e 58 4a 3d f2 4e 26 bc bc 37 92 3d
       0.09073277 0.04940062 -0.010150658 0.07139537
0000c0 1a 5e f9 ba e3 46 b3 bd 3c 68 af bc 33 8b 1b 3d
       -0.0019025237 -0.08753755 -0.021412008 0.037974548
0000d0 e0 52 0b 3b e4 88 a1 3d 93 2f b3 bd bc 87 f9 3c
       0.0021259114 0.07887438 -0.087493084 0.030460231
0000e0 5d 6f 28 bd 41 dd f2 bc d5 79 28 3e 6c 78 ce bc
       -0.04112183 -0.029646518 0.16452725 -0.025203906
0000f0 a7 b2 82 bd bc 34 18 bd 5a 01 10 bd 9a 6d 7f 3c
       -0.063817315 -0.037159666 -0.03515754 0.015590096
000100 6d 2e 4e 3b 06 c0 d2 3c 0f 3f b1 bc e7 bd 83 3e
       0.0031460777 0.02572633 -0.021636514 0.25730821
000110 2c ad cc bc d3 a4 33 3c 2a 96 f0 bc 46 03 23 bd
       -0.024984919 0.01096459 -0.029368479 -0.039798044
000120 99 72 4f 3c 99 af 52 3d e7 2c 06 bd e1 87 97 bc
       0.0126616 0.051436994 -0.032757666 -0.01849741
000130 91 9d 73 bf 9a 8e 1e 3d 8f 6f 7c bd 84 34 aa 3d
       -0.951623 0.038710214 -0.061629828 0.08310798
000140 6f 28 b4 bc 33 91 56 3d 01 43 0e 3d 3f 2d a8 3d
       -0.021991936 0.052384567 0.03473187 0.08211755
000150 32 35 7f bc fd 5d df 3d 72 94 4e bd c6 76 11 3e
       -0.015576648 0.10906599 -0.050434537 0.14205465
000160 90 38 02 3d 48 d7 1c 3d cb 26 0e 3d 2a 23 55 bd
       0.031792223 0.038291246 0.034704965 -0.05203549
000170 cf dd 4d bc 54 8d 12 3d 0a 08 5d bd 21 66 dd 3b
       -0.01256509 0.035779312 -0.053962745 0.0067565595
000180 5e 25 7a bc e2 7a 43 3c 4f 44 f9 bc 5b d9 9f 3a
       -0.015267698 0.011931153 -0.03042808 0.0012195514
000190 31 87 1a bd 34 ff f4 3c 9e 28 04 3d 72 49 0b 3d
       -0.037726585 0.029906847 0.032265298 0.03400559
0001a0 fc 76 85 bc b4 64 8f bd 86 65 32 3d f9 b7 3d 3d
       -0.016292088 -0.070016295 0.04355385 0.046318028
0001b0 98 6e 62 3c b7 4f b5 bd 6a ac 6a bd 41 4e 07 be
       0.013820313 -0.08853095 -0.057293333 -0.13213445
0001c0 b8 18 5f bc 8d 10 04 be d7 4f 38 bc 20 0d a6 bd
       -0.013616733 -0.12896939 -0.011249504 -0.08107972
0001d0 95 99 14 bd 05 56 39 3c 7f 8a 78 bc 19 87 83 bb
       -0.03627928 0.011312013 -0.015169739 -0.0040139076
0001e0 c2 9f b3 3b ea bf 65 be 34 92 36 bd 00 1e 75 bc
       0.005481691 -0.2243649 -0.044573024 -0.014960766
0001f0 6b d6 9a bd 7c d5 2c 3d 4c 5e 12 3c 33 78 25 bd
       -0.07560428 0.042195782 0.008933615 -0.040397834
000200 56 01 a2 3c d6 c5 dc bc 6b 1b 9c 3d 47 5b fc bc
       0.019776028 -0.026949804 0.07622417 -0.030805243
000210 d2 f9 46 bd 47 cb 8f bc cd 66 2d 3c b0 9f b1 3c
       -0.04857809 -0.017552985 0.010583592 0.02168259
000220 ff 5f 9f 3d ab 8d cb 3c 8a 77 1c 3c 4d 94 d1 3b
       0.07781982 0.024847826 0.009549985 0.0063958527
000230 1e a1 0b 3d c0 bd 31 3d a6 9b 8b bc 6f 6a 83 bd
       0.0340892 0.04339385 -0.017041992 -0.06416785
000240 45 f0 f5 bc 8d 95 37 3c aa 39 e3 3b 6b 68 04 bd
       -0.030021796 0.011205089 0.0069343643 -0.032326143
000250 16 8f 7a 3e 5a a2 7c bc 0b d3 98 3d 6d 0c 55 bd
       0.24468645 -0.015419567 0.07462128 -0.052013803
000260 fd 7b 72 3c a6 24 58 3d 08 e4 f3 3c 6b 32 25 3c
       0.014800069 0.052769326 0.02977182 0.010082821
000270 5a eb ea 3c 85 48 88 be 12 3c 79 3d 8a f1 1d 3b
       0.028676677 -0.26617828 0.060848303 0.0024100267
000280 f7 72 89 3d da 55 ce bc 2f 5b cc 3c dd 01 3f 3d
       0.06711381 -0.025187422 0.024945823 0.046632636
000290 c9 c7 92 3d 7b 74 a4 3d d1 ca db 3c 7b ee 7c 3d
       0.07167012 0.080300294 0.026830109 0.06175087
0002a0 37 6e 01 3e cc 18 e5 3d cc 0f 9c 3b 44 34 22 bc
       0.126397 0.1118637 0.0047626253 -0.009900156
0002b0 7b 0c 8b bc 0c e7 65 3d 40 8a 06 3d 99 8b 5f be
       -0.016973725 0.056128547 0.03284669 -0.21830596
0002c0 5b 50 3e bc e5 f5 a0 3d 45 a2 c5 3c ba a0 69 3c
       -0.011615838 0.07859401 0.024125228 0.014259512
0002d0 58 36 81 bd 94 3d 15 bd f4 26 17 3b d0 d2 8f 3c
       -0.063091934 -0.03643568 0.002306399 0.017556578
0002e0 2c 32 f9 3d f1 42 b4 bd b4 a1 92 bc 5b be 31 bd
       0.12167773 -0.088018306 -0.017899372 -0.043394428
0002f0 50 ae f1 3c c6 f9 a5 3c 15 47 9d 3c 42 ea 17 3d
       0.029502064 0.020260703 0.019198934 0.03708864
000300 54 28 81 bd 38 2b 45 3e a6 df b6 bd a2 a4 fd bc
       -0.0630652 0.19254768 -0.08929376 -0.030962292
000310 e3 eb 65 bd f7 cf 1b bb 03 18 11 3b b4 78 84 3c
       -0.056133162 -0.002377508 0.0022139556 0.016170837
000320 7f 30 4c 3c 91 7d 92 bc 79 6c 73 bb 9d 94 09 3d
       0.012462734 -0.01788214 -0.0037143512 0.033588994
000330 01 ed 27 3c ac 77 d2 bc b2 27 0c bd 2f 97 79 bd
       0.010249377 -0.02569183 -0.034217544 -0.060935196
000340 7e 29 8f bc 95 42 ee bc a7 e4 cf bd a2 21 58 3e
       -0.01747584 -0.029084483 -0.10151034 0.2110658
000350 f2 8f c9 bc d8 b2 04 bd ba 4d de bb 01 64 84 bd
       -0.024604771 -0.03239712 -0.006784168 -0.06464387
000360 69 43 23 3a 85 26 51 bd ab 61 0f bd 41 a6 60 3d
       0.00062280014 -0.051062126 -0.035005253 0.054846052
000370 4c 5e 59 3d cd b7 15 bd 24 7e ec 3c 2e b0 ae bd
       0.053068444 -0.03655224 0.028868742 -0.08529697
000380 3b 0c 42 bd e9 1c 85 bd f5 45 fe bc be c4 51 bc
       -0.047374945 -0.06499655 -0.031039217 -0.012803255
000390 00 ed 43 3c ce aa 8f bd fa f2 a0 3d e5 15 91 3c
       0.011958361 -0.07015 0.07858844 0.017710635
0003a0 98 d7 ea ba a5 3e 74 3d cc 1c 32 bd 2b 3f 9e bb
       -0.0017917035 0.059630055 -0.043484494 -0.0048293076
0003b0 13 da 24 3d 28 04 3e bb 4f 25 2a 3d 96 01 84 bd
       0.040247034 -0.0028994177 0.041539486 -0.06445615
0003c0 05 54 8c bd fb 14 d5 bd 50 4b 76 bd b8 ce 6b 3b
       -0.06851963 -0.10404392 -0.060130417 0.0035981368
0003d0 40 49 9f bc 9d 89 a4 3d 02 88 5b 3b 34 2f ed bb
       -0.019444108 0.0803406 0.0033497815 -0.007238293
0003e0 06 e2 42 3b 91 78 64 bd 1e b5 b2 bd 23 74 00 bd
       0.0029736771 -0.055779044 -0.087259516 -0.031360757
0003f0 7d 10 a0 3c 16 b1 80 3d 40 fc cf 3d 9d 2e 7e bb
       0.019539112 0.062837765 0.10155535 -0.0038785108

conv3.bias f4 [24]
000000 61 5f a1 bd c1 42 7e bd 3d 0b 9c 3c 15 fb 1b 3b
       -0.0787952 -0.06207538 0.019048328 0.002380078
000010 36 26 f3 bd 3f 69 05 be 53 61 51 3d 28 6e db bc
       -0.118725225 -0.1302843 0.051118206 -0.026785925
000020 e9 8a 03 be a3 11 1b 3d e2 6c 9f bd 4e ba 0b be
       -0.12845959 0.037858617 -0.077844396 -0.13645288
000030 b0 d4 31 bc cd 3f f3 3d 43 63 4e 3d 6e 54 f1 3d
       -0.010853931 0.118774034 0.050387632 0.11783682
000040 69 28 90 3c 2d e7 2a 3d ad 97 0d 3d 40 6a d0 3c
       0.017597394 0.041724373 0.034568477 0.025441289
000050 4d 2a b7 3d 6e aa 4e 3d e4 59 a2 bd 22 23 25 be
       0.08943615 0.050455503 -0.079273015 -0.16126683

conv4.weight f4 [24, 24, 3, 3]
000000 21 33 66 bd 15 67 5d 3d 54 ef 00 bd fa 2a 9c 3c
       -0.056201104 0.054053385 -0.03147824 0.019063462
000010 c5 ad 7d 3c 44 c1 72 3d 6e dd 57 bd a1 ec d5 3c
       0.015483324 0.059266344 -0.052701406 0.02611381
000020 20 67 b9 bc e8 10 93 bc f2 f7 1a bd 63 37 56 3c
       -0.022632182 -0.017952397 -0.037834115 0.013074729
000030 78 ef bf 3c 8d c8 d7 bd a7 b7 f4 3c 0f 50 a4 3c
       0.023429617 -0.10536299 0.029872729 0.020057706
000040 69 35 28 3c 46 37 1d bd 08 79 b0 bc fc 55 8d 3b
       0.01026664 -0.03838279 -0.021542087 0.0043132287
000050 13 a4 ea 3c 52 b5 96 bc 5d c4 1c be dc 83 8a bc
       0.02864269 -0.018397007 -0.15309282 -0.016908579
000060 54 89 82 bd e8 64 41 bc fb c8 c9 3c d6 7d 16 bc
       -0.063738495 -0.011803843 0.024631968 -0.009185275
000070 76 cb 60 3d 93 2f f5 3c e2 ba 8a 3c 20 7c 34 be
       0.054881535 0.029929912 0.016934816 -0.17625475
000080 d1 73 45 3d dc 06 1c 3b e3 9f fd 3c fb 39 65 3a
       0.048206154 0.00238078 0.030960029 0.00087442965
000090 c3 ba be bc aa a7 cc 3c 65 2b 7c ba a2 31 05 bd
       -0.023282414 0.024982292 -0.00096195034 -0.032518037
0000a0 72 1a 0c 3e 90 bb 94 bc b2 ce 10 3d 51 73 90 bd
       0.13681963 -0.018155843 0.03535337 -0.07053245
0000b0 9d 2e 1b bd 8e a5 e2 3d 4e cb 95 3d cf 86 89 3d
       -0.03788625 0.11066733 0.07314168 0.06715166
0000c0 22 f2 36 3d 1c b6 1e 3d 1d e4 97 3d 8b 5f 37 3d
       0.04466451 0.03874789 0.07416556 0.04476885
0000d0 b9 cc 37 bb 54 d7 dd 3d ba 09 ba 3d fc 8b cc 3d
       -0.0028045608 0.10832086 0.090838864 0.099876374
0000e0 5c 46 a3 3d d1 6f a2 3d ce 26 41 3d 6c e6 80 3d
       0.07972404 0.079314835 0.047156148 0.062939495
0000f0 98 b5 b1 3d ca c3 80 3d 14 10 8e 3d 34 6f d4 3c
       0.086772144 0.06287344 0.069366604 0.025931932
000100 96 67 68 bc c8 e1 b0 3c a9 34 06 3d 02 a7 45 3e
       -0.014184853 0.021592036 0.032765064 0.1930199
000110 0d 8f a0 bc 0d f2 1a bd 2e a8 92 bc 07 bf 34 3c
       -0.019599462 -0.037828494 -0.01790246 0.011031873
000120 54 ab 52 bd f0 14 f3 3c 1d 9b 6b bd 5d d2 b4 ba
       -0.051432922 0.02967307 -0.057520974 -0.0013795603
000130 a1 48 a4 3d e7 91 81 bc c3 51 11 bd 0c df f6 bc
       0.08021665 -0.015816642 -0.035478365 -0.030135654
000140 95 9b 55 bd fe 5a db bc 94 78 67 bd cc bb 9b bc
       -0.052150328 -0.026776787 -0.056511477 -0.019010447
000150 f0 03 b4 bd 37 ba d2 be 4e 70 30 bd d8 37 57 b9
       -0.087898135 -0.41157696 -0.043075852 -0.00020524801
000160 17 fb 39 bd c0 a1 0f bc 24 91 c8 3c 7e 06 c6 bc
       -0.045405474 -0.008766592 0.024483271 -0.024173018
000170 f9 a2 90 3d 8a 49 0a ba 4e 96 a3 3e 99 46 0f 3b
       0.070623346 -0.00052752404 0.3195061 0.0021862148
000180 a2 33 1a 3d 78 70 d3 3c dc e0 82 3d 44 17 e2 bc
       0.037646897 0.025810465 0.06390545 -0.027598985
000190 17 8a 57 3c 6a eb 9d 3b 40 7f b7 3b 9a 48 31 3e
       0.013155482 0.0048193233 0.005599886 0.17312852
0001a0 20 8a 70 3d 1c 0d 9d bc ed 4a 66 bd 54 37 0f 3c
       0.058725476 -0.01917129 -0.0562238 0.008741219
0001b0 40 10 0f 3d b8 80 3b 3d 0d 2d 47 bc 60 5d 57 3d
       0.034927607 0.045777053 -0.012156737 0.052579284
0001c0 14 18 4b be 29 c4 74 3c 97 95 96 3b 87 e7 fc 3c
       -0.19833404 0.014939346 0.004595469 0.03087212
0001d0 61 1c f4 bc 05 1b 9e 3c 84 ad 99 3d 14 ec 6f bb
       -0.029798688 0.019299993 0.075037986 -0.003660922
0001e0 0c 67 d6 3c a7 4b 45 3e 2d a2 e3 bc 38 ce 8f bc
       0.026172183 0.1926714 -0.027787292 -0.017554387
0001f0 ff fc 2d bc e1 ef 4f 3d bf fc a3 bd bc a3 c5 bd
       -0.010619401 0.050765876 -0.08007192 -0.096503705
000200 cd 8f 60 bd 76 b1 7c bd 3a 92 5b be 7a 88 04 bc
       -0.05482464 -0.061692677 -0.214425 -0.008089179
000210 7c 33 e7 bc 45 7e 83 bd 7d 84 8c 3a 40 68 cd bc
       -0.028222792 -0.064205684 0.0010720637 -0.025074124
000220 4e 31 0d 3d 31 04 93 bc e4 93 0a 3c ce a3 38 3a
       0.03447085 -0.017946335 0.008458111 0.0007043452
000230 75 fa 90 3c 45 03 65 bd 5f 66 53 3c 45 f2 60 bc
       0.017697552 -0.05591132 0.012902825 -0.013729637
000240 96 40 cb 3c 58 48 b6 bb 75 78 1c 3d de 7c bc 3c
       0.02481107 -0.0055628233 0.038200814 0.02300876
000250 c3 9a e5 bc 51 e3 82 bd e2 95 a9 bb 09 b1 e1 3c
       -0.028027898 -0.063910134 -0.005175338 0.027550237
000260 67 7f aa 3c 4c f6 0c 3d 70 29 e1 bc c8 6f bb 3c
       0.020812703 0.034414575 -0.02748558 0.02288045
000270 21 26 7c 3c 00 d7 54 be 8d b6 3b bd 6f 33 c9 3c
       0.01538995 -0.20785141 -0.04582839 0.024560658
000280 69 17 97 bd e0 2a d5 bc b7 37 05 3d c9 e3 29 3d
       -0.07377512 -0.026021421 0.032523837 0.041477
000290 b6 b4 09 3d d0 46 04 3d 6e 0a 44 bd 7e 66 2c 3d
       0.033619605 0.032294095 -0.04786151 0.04208993
0002a0 7b 63 15 3d 3e d0 35 3d 07 1f 7f 3c 2e d0 55 bd
       0.036471825 0.04438805 0.015571362 -0.05220049
0002b0 ec 7b df bc 94 c0 55 bd 40 08 14 3d 98 fa d8 bd
       -0.02728077 -0.05218561 0.03614068 -0.10594672
0002c0 ea 62 a9 bc d1 58 ad bd 48 82 bf bc 9d af 95 bc
       -0.020677049 -0.08464206 -0.023377553 -0.018272216
0002d0 f3 49 82 bd 24 8e a6 bd 15 9e 98 bd 72 dd 2d bd
       -0.06361761 -0.0813258 -0.07452027 -0.042447515
0002e0 c0 e5 8e be 7f d1 9b bd d6 2f 92 bb c8 ba 7b bd
       -0.2790966 -0.076083176 -0.004461269 -0.061457425
0002f0 47 00 88 bc 3b 18 b3 3d 7f 98 86 3c d7 03 f6 3c
       -0.016601695 0.08744856 0.016430138 0.030031128
000300 ed 2f cb 39 a0 43 44 be 68 b1 9c 3b cc fa 87 3d
       0.00038754885 -0.19166422 0.0047818907 0.066396326
000310 8d 94 8d 3d 35 9f 79 3c 40 e1 4b bd 11 2a e5 bc
       0.069130994 0.015235712 -0.049775362 -0.02797416
000320 c9 be 04 bd 66 a6 50 bd 43 26 0c 3e f0 2e 62 3c
       -0.03240851 -0.05093994 0.1368647 0.013805136
000330 d6 14 9d bc 10 44 57 bd e1 cc 91 3b f2 b4 14 3d
       -0.019174974 -0.052555144 0.0044494723 0.036305375
000340 9a 27 62 bd df 31 7d bc 4a 87 0b bd 1c 58 ea bd
       -0.05521355 -0.015453785 -0.03406457 -0.11442587
000350 d9 b9 6c bd 6e 01 3b 3c db 0b 57 3c ce af 8b 3a
       -0.057794426 0.011413915 0.013125385 0.0010657252
000360 a6 ca d1 3a d6 d4 92 3d b4 f4 ce bb c1 23 3a 3c
       0.0016005829 0.071695015 -0.006315792 0.011361063
000370 c4 e8 98 be 97 23 64 3c d4 77 55 3d 81 be 5c 3d
       -0.29865086 0.013924501 0.05211623 0.053892616
000380 27 a4 ec 3b b3 bf 12 3d 61 7e af bd 24 53 9f bb
       0.007221717 0.03582735 -0.08569027 -0.004862206
000390 57 a0 0a be c9 b5 ca bd 8e ad 80 bd e7 92 86 bd
       -0.13537727 -0.09897954 -0.06283103 -0.06570988
0003a0 f4 ad 8a bd 91 17 32 bd 44 75 29 3a cf e4 3f 3b
       -0.0677146 -0.043479506 0.00064643123 0.0029280668
0003b0 af c3 3f 3d c4 18 5d 3c b4 a3 09 3e c7 8f ec bb
       0.046817478 0.013494674 0.13441354 -0.007219288
0003c0 f3 98 aa bc e6 22 ec bc be cb 15 bb 4d 39 cc bc
       -0.020824885 -0.028825235 -0.0022857036 -0.024929667
0003d0 ca 68 f2 3c 3a 96 27 3d da a4 fd 3c b4 ef 46 bc
       0.029590983 0.04091475 0.030962396 -0.012142111
0003e0 ac 48 33 3b a2 fe 80 bc 1d e7 3b bd 37 59 f1 3c
       0.0027356548 -0.015746418 -0.045874704 0.029461486
0003f0 9c 28 22 bd b7 d2 2b bd 8c 7f 70 bd 59 17 e4 bd
       -0.03958951 -0.041949 -0.05871539 -0.11137266

conv4.bias f4 [24]
000000 f1 eb 43 bc f5 da d9 3d 7c ff 7b bd 4e 72 00 3e
       -0.011958108 0.10637466 -0.061522946 0.12543604
000010 6e 55 b2 bd c4 7a 6c bc cd c8 a8 bd 76 81 05 3d
       -0.08707701 -0.0144335665 -0.08241425 0.032594167
000020 46 0d b6 bd a3 28 99 bd b1 12 bc 3c c9 9f 3c bc
       -0.088892505 -0.07478454 0.022958132 -0.011512705
000030 c5 9a 14 bd 17 d6 19 be 09 0d 52 3e 26 24 a9 bd
       -0.036280412 -0.15023075 0.20512785 -0.08258848
000040 05 02 f1 bc 89 6b ca bc be 48 be bd 0c 56 61 bc
       -0.029419908 -0.02470948 -0.09291218 -0.013753425
000050 f4 ad 98 3d 3d 18 8f 3b f8 1f 27 3d 05 47 48 3d
       0.07455054 0.004366903 0.040801972 0.048895855

conv5.weight f4 [24, 24, 3, 3]
000000 5e 7e b3 bd 6d ca a6 bd 7e ca 4c bd c6 fc 68 bd
       -0.08764337 -0.081440784 -0.0499978 -0.05688169
000010 cb fb 25 be 30 0f ae bc ea 02 41 3c 7e 41 8d bd
       -0.16209333 -0.021247476 0.01178048 -0.06897257
000020 16 9d a4 bc 5c 13 00 3d 6d 7b 63 bb 0f ff 4f 3d
       -0.020094436 0.031268463 -0.0034711019 0.050780352
000030 e4 9c 89 bd ef 55 5e 3d 02 d5 72 bc 05 15 89 3d
       -0.06719378 0.05428117 -0.014821293 0.06693462
000040 5e c2 50 3d 4b e6 fb 3c 54 e2 ba 3c a8 67 9c bd
       0.050966613 0.03074946 0.022813 -0.07636958
000050 e5 ba 45 bb 43 40 fd 3c dd e0 5b be f5 d5 e2 3c
       -0.0030171212 0.030914431 -0.21472497 0.027689913
000060 1a 4a 8d 3c c4 33 40 3d 11 94 40 3d bc f8 f5 3b
       0.017247248 0.046924368 0.047016207 0.007506458
000070 3c 0a 48 bc 83 53 81 3c 56 60 a9 3d 8b df 80 3e
       -0.012209471 0.015786892 0.08270328 0.2517055
000080 c8 8d 86 3c 08 06 53 3c a8 dc b9 bc 82 e2 aa 3c
       0.016425028 0.012879856 -0.022688225 0.02085996
000090 bc ed 67 bc db 46 26 bd 33 0c de 3c 90 f4 24 3d
       -0.014155801 -0.040594917 0.027105426 0.040272295
0000a0 73 07 ac bd 39 fb 78 3d 09 12 02 3d cf 9a ca bc
       -0.08399858 0.06078646 0.03175548 -0.024732022
0000b0 1b 74 a8 bd 20 69 54 3b 55 8b 61 3d 1b 5c f7 3d
       -0.0822527 0.0032411292 0.055064518 0.120781146
0000c0 f1 7b 35 3d ad f5 0c be c1 47 46 3d e8 75 ab 3c
       0.044307653 -0.13765593 0.048408274 0.020930246
0000d0 d3 22 4c 3d 0e a0 bb 3d ab e2 68 3c af 8e 40 3d
       0.0498379 0.091613874 0.014214198 0.047011074
0000e0 2c 81 3a bd b9 1a a9 3b 47 a4 05 3e 40 73 d7 bc
       -0.045533344 0.0051606563 0.13050948 -0.026300073
0000f0 99 9b e5 bc a1 00 aa bd aa 6c ef bd 19 ac 7c bd
       -0.028028296 -0.08300901 -0.11690648 -0.061687563
000100 c8 bb d7 bc 42 e3 da 3c ca b7 d2 bc b2 0c 12 be
       -0.026334658 0.026719693 -0.025722403 -0.14262655
000110 ac bc e7 3d 04 a2 ca 3d d9 11 d6 3d 35 b5 c3 3d
       0.11315283 0.09894183 0.10452623 0.09556047
000120 26 23 f1 bd 90 4d 7d bd ee 6d b2 bd 7d fc 14 bc
       -0.11774282 -0.061841547 -0.08712374 -0.009093401
000130 c1 9c 8f bd fc 7c b2 3a 4d 86 22 bd 0b bc fe bc
       -0.0701232 0.001361757 -0.03967886 -0.031095525
000140 15 57 c2 bc 0e de 94 3b 47 f4 2c bb 19 ca 8c bd
       -0.023723165 0.0045430725 -0.0026390718 -0.068744846
000150 b6 18 b5 3b 6f 95 94 be 27 cf 8f bd 34 f4 49 bd
       0.0055266274 -0.2902026 -0.07021933 -0.049305156
000160 dc 20 59 bd 52 28 83 bd 84 87 83 3d 4c 09 3f 3c
       -0.053009853 -0.06404175 0.06422332 0.011659931
000170 d3 4c e9 bc 88 40 ee 3b 23 c2 5e 3e 94 0c 9f bc
       -0.028479015 0.0072708763 0.21753745 -0.019415177
000180 c2 10 46 bd a2 f3 b6 3c cf 20 b2 bd 0d 41 e7 bc
       -0.048355825 0.02233297 -0.08697664 -0.02822926
000190 fa b8 c8 bb e4 0e dd 3c 94 38 49 bb ba 44 30 be
       -0.0061255665 0.02698464 -0.003070389 -0.17213717
0001a0 b8 79 4a 3d 10 33 cd 3d ea c4 a2 3d ce 5f 21 3e
       0.049432486 0.10019505 0.079477146 0.15759203
0001b0 a8 b3 42 bc e7 02 a9 3b e9 bb 2f 3b 0c d1 d8 bd
       -0.011883654 0.0051578167 0.0026814884 -0.105867475
0001c0 11 01 ea 3d 75 12 6d bd 00 3b bb bd 3a 1f bf bd
       0.11425985 -0.05787893 -0.09142113 -0.09332128
0001d0 bd b7 3a be 64 f3 5c bd c8 b7 a8 bd 96 e7 43 bd
       -0.18234153 -0.053943053 -0.082381785 -0.04782828
0001e0 66 2a 13 bd 78 70 40 be 0f 91 01 bd d0 07 ac bb
       -0.035929106 -0.18792903 -0.03163248 -0.0052499548
0001f0 95 fb 82 3d a0 4c a3 3d b6 e6 01 bd 36 b4 26 bc
       0.06395642 0.079735994 -0.031714164 -0.010174802
000200 ef bf a5 3b 9a 6d 03 3d 66 02 e7 3d df 72 8a 3d
       0.0050582807 0.032086946 0.11279754 0.06760191
000210 f8 c4 83 3d 66 1b 19 3c ed ae c5 3c 9f 29 f3 3c
       0.06434053 0.009344911 0.024131263 0.029682932
000220 20 c4 88 3d cc 40 32 3d 25 3e cc 3d 1a 86 44 3e
       0.06678033 0.043518826 0.09972791 0.1919178
000230 b1 69 02 bb 84 be b4 bc cc 3e 3a 3d 93 f3 4e 3d
       -0.0019899423 -0.022063501 0.045470044 0.05052526
000240 cd 01 0e 3c ae 63 03 b9 3c 66 cd ba 53 0a 98 bc
       0.0086674215 -0.00012530267 -0.0015670727 -0.01855961
000250 84 11 98 3d 50 4c d7 3c 41 29 32 3b 5d e2 69 3d
       0.07425216 0.026281506 0.0027185234 0.057100642
000260 e5 29 25 3d 8f 22 72 bd 8e 65 a2 bd c7 6c 07 bd
       0.040323157 -0.05911499 -0.07929526 -0.033062723
000270 00 4f c5 bc dd 60 49 3c b9 be 1c bd 1a 47 1e 3c
       -0.024085522 0.01229116 -0.038267825 0.009660507
000280 6b dd 81 bc 84 b7 28 3d 98 56 23 bc 08 d2 2e bc
       -0.01585265 0.04119064 -0.009969376 -0.010670193
000290 a1 e3 bd bc 1e 8d c0 bc c2 d3 a7 bd 9f bc ff bb
       -0.023179831 -0.02350479 -0.081946865 -0.007804468
0002a0 70 53 0e bd 14 3a 5c 3b 21 f5 4b bc b8 60 40 bd
       -0.03474754 0.0033603953 -0.01244858 -0.04696724
0002b0 a2 42 9e bd 26 ab 30 3d d3 97 d9 bc 0b bb d0 3d
       -0.07727553 0.04313197 -0.026561653 0.101919256
0002c0 06 70 c8 3d e7 3a 0a 3d 2a da fc 3c 38 e1 e1 3d
       0.09786992 0.03374758 0.030865747 0.11029285
0002d0 c9 4b f0 3b 53 f5 53 3c 78 02 55 3c e6 84 8d 3c
       0.007333253 0.012936908 0.013001077 0.017275285
0002e0 12 3a d1 3c 97 85 9e bc 60 06 aa bc 0f c2 4b 3c
       0.025540385 -0.01935081 -0.020754993 0.012436404
0002f0 e5 1b a8 3c 69 d9 60 3c 83 4d a2 bc 72 a7 f2 bb
       0.020521114 0.01372371 -0.019812351 -0.007405215
000300 35 1b 31 bd fc 77 8f 3d 7d 4f 07 bd ee 99 a9 bd
       -0.043238837 0.07005307 -0.03303479 -0.08281313
000310 ec 24 5f bd 5a 06 19 3c e8 3d 1e bd cd d5 88 bd
       -0.05447857 0.009339893 -0.038633257 -0.06681404
000320 66 57 1e bd f4 c6 9c bd 69 6a 6e 3c 8b 56 6d 3b
       -0.03865757 -0.07655135 0.014551737 0.0036214914
000330 57 b7 9d 3c 39 9d f2 3c 7f 0d b0 bc e2 5a e9 3c
       0.019252462 0.029615985 -0.02149081 0.02848572
000340 16 7b 87 3d c7 52 90 3d 5b ba e5 bc 78 91 eb bd
       0.06615274 0.070470385 -0.028042963 -0.11502355
000350 3b 2f 84 3c 51 f5 bd bd b2 a5 ac bd b4 b2 7b 3b
       0.016135802 -0.09275306 -0.084300414 0.0038406076
000360 7f 9a 7c bd 86 c8 c4 bd 5a b6 ad bd 95 4e c1 bd
       -0.061670776 -0.09608559 -0.084820464 -0.094388165
000370 a6 29 0d 3e d8 8b f2 bd 67 08 30 bd 67 af ad bd
       0.13785419 -0.11843079 -0.042976763 -0.08480721
000380 6b d7 67 bd 12 50 91 bc ab 51 bd 3b c5 a4 19 3d
       -0.056601923 -0.017738376 0.005777558 0.037510652
000390 1d 0b 18 bd 31 31 e3 3c e6 38 ee bc cc e5 6e 3d
       -0.037119973 0.027733417 -0.029079866 0.05832462
0003a0 95 67 06 bc 54 f0 49 3a 0e 92 83 3d 10 64 00 3d
       -0.008203407 0.0007703353 0.06424342 0.031345427
0003b0 f7 d6 29 3d ec 2c dd 3b b6 cc e8 bb 4f 34 b5 3c
       0.041464772 0.00674974 -0.0071044816 0.02211967
0003c0 10 db 27 3d e9 eb 4a bd f9 47 6f 3d e9 7e 02 bd
       0.0409804 -0.049541388 0.058418248 -0.031859312
0003d0 25 ce 70 bb 94 db 5d bd b8 7b 21 bd 81 5f e4 3c
       -0.0036743965 -0.054164484 -0.039424628 0.027877571
0003e0 cf 7c 76 bd ce 00 8f bd 1d 8a 14 bd 0e 44 eb bb
       -0.06017762 -0.06982575 -0.036264528 -0.0071797436
0003f0 0d 9b 8e bc 61 e8 37 bc 96 ae 8e 3c 86 4d 5a 3d
       -0.017407918 -0.011224837 0.017417233 0.05329659

conv5.bias f4 [24]
000000 1e 33 84 bc c6 79 80 3d 8c 7f 1c 3c 15 98 be bd
       -0.016137656 0.062732264 0.009551894 -0.09306351
000010 54 d1 7d bd 76 7b 82 3d 6f bf 98 bd f6 90 90 3d
       -0.06196721 0.063712046 -0.07458388 0.07058899
000020 1b 31 15 3d b6 3f bd bc d1 37 1f be a6 ae bd bc
       0.036423784 -0.023101669 -0.15548636 -0.023154568
000030 c0 ee 1f 3c 2d 44 cd 3d fe d3 ec 3d 06 bf 00 3e
       0.009761512 0.10022769 0.11563872 0.1257287
000040 9c 17 67 3d 35 4f 1f be b8 5a 44 3d b4 b9 de 3c
       0.056419 -0.15557559 0.04793808 0.02718816
000050 64 3a e9 3d 21 8c 52 bd 44 f4 66 be da c5 7b bd
       0.1138809 -0.05140317 -0.22554117 -0.061467983

conv6.weight f4 [24, 24, 3, 3]
000000 63 82 5c bd 48 d3 6f bd aa b3 00 bd 75 d3 e6 bc
       -0.053835284 -0.058551103 -0.03142134 -0.028177002
000010 25 0a 77 be 0c 45 e4 ba 8e 70 8b bd 3f 30 1b bd
       -0.24124964 -0.0017415597 -0.068085775 -0.037887808
000020 9a 82 fe 3b 2a 3d 68 3d 9d 25 40 3d b4 45 18 3d
       0.0077670338 0.056698956 0.04691087 0.03717585
000030 3a 9b 80 3b b3 99 5b bc 75 0f ed bc c4 99 c0 3c
       0.0039247544 -0.013403344 -0.028938035 0.023510821
000040 9d 98 b4 3c c3 27 5e 3d 32 d7 f5 3c 70 2f f4 3c
       0.022045428 0.05423714 0.03000984 0.029807776
000050 ff 3f b7 3c 03 b6 04 bd dc d0 4c 3e bd 93 09 3c
       0.022369383 -0.032400142 0.20001549 0.00839704
000060 e3 e6 b0 3c f9 96 20 3d 5e 92 52 3d 5b c4 99 bc
       0.02159447 0.03920648 0.051409118 -0.018770387
000070 8c 27 a3 bd 80 5a ce 3b b0 c0 c4 bd 17 d6 78 be
       -0.07966527 0.0062974095 -0.09607065 -0.24300419
000080 4c ee b2 bc 6f 3f 27 bd 20 0f 93 bd cf 7c 82 bd
       -0.021842144 -0.04083198 -0.07180619 -0.063714616
000090 7c 78 95 bc dd 11 c4 3d 95 4d 9f 3d 52 ed b7 3b
       -0.018245928 0.0957372 0.077784695 0.0056130076
0000a0 b7 b3 c3 3d e5 4b 77 3d 77 22 b2 3c a7 83 5d 3d
       0.09555762 0.060375113 0.02174495 0.05408063
0000b0 65 63 07 3d fa 5a 47 3d 56 cb 0f 3d 67 55 1f 3b
       0.033053774 0.048670746 0.035106026 0.0024312378
0000c0 cc 53 65 3d 7b 2d c8 bd 57 ba 02 3c c9 2c 03 3d
       0.055988118 -0.097743 0.007978997 0.032025132
0000d0 d9 9a 8d 3d 10 b1 9b 3a 57 95 12 3d 5d 55 97 3d
       0.069143005 0.001187833 0.035786953 0.07389329
0000e0 55 90 29 3c d8 5f 09 bd 41 68 d5 bd 43 98 2c 3d
       0.010349353 -0.03353867 -0.104202755 0.042137396
0000f0 3d a8 ee bc d2 9a 6b bd e2 2f 4a 3c 3f 11 c7 ba
       -0.029132957 -0.057520695 0.012340518 -0.0015187635
000100 fe da 84 bd ef 31 d8 ba 44 f7 a3 bb f6 57 28 3d
       -0.06487082 -0.0016494374 -0.0050038416 0.04109951
000110 ac 5a b6 3b 2f 48 69 bd 2a 2c 7b 3c ed 93 fb bc
       0.005565008 -0.056953605 0.015330354 -0.030710185
000120 48 ca 2f 3d 7e 8f 18 bd 2a 06 ef 3d 0e 8b c5 39
       0.04291752 -0.03724622 0.116710976 0.00037678372
000130 ab 6d ea be 38 09 56 3c 80 67 bd 3c e2 c8 8b 3c
       -0.45786795 0.013063721 0.023120642 0.017063562
000140 08 a2 c8 3d 35 2b 06 bd 40 91 a9 bd 11 d9 9f bd
       0.0979653 -0.03275605 -0.08279657 -0.07805074
000150 6a fd 14 bd a2 e2 80 bd 6c ad d1 bc 17 12 1d bd
       -0.036374487 -0.06293227 -0.02559539 -0.03834733
000160 24 e1 6e bc ab ad 0b be fd 7c d1 bb 85 d3 6d 3c
       -0.014580045 -0.13640468 -0.0063930736 0.014515762
000170 f6 34 1e 3d 5e 1b e3 3d f8 96 22 3e d3 48 61 3d
       0.038624726 0.11089204 0.15877903 0.05500109
000180 39 c8 ab 3d be 7d 9b 3c 98 05 27 3c 23 2c 3e bd
       0.08387799 0.018980857 0.010194205 -0.04642881
000190 87 31 c4 3c b4 f0 1c 3c e3 30 f7 3c 92 d7 ec 3d
       0.023949398 0.0095788725 0.030174678 0.11564554
0001a0 b5 e7 b0 3b da 9f dd 3c c7 25 d5 bc 3a 41 49 bd
       0.0053987154 0.027053762 -0.02601899 -0.04913447
0001b0 cb 97 d9 bc 3d 95 81 bd 38 45 a9 bc ca 98 39 bd
       -0.026561638 -0.06327293 -0.020662889 -0.045311727
0001c0 fd 29 61 3d 0c a1 e3 bc 66 86 d8 bb bf 46 8b bc
       0.054971684 -0.027786754 -0.0066078184 -0.017001508
0001d0 9b ef f2 bb b3 ca 39 bd 64 e4 f6 bc 90 21 58 bd
       -0.007413817 -0.045359325 -0.030138202 -0.052766383
0001e0 85 c9 c4 bc b4 32 21 3e 48 72 23 3c 05 8d 10 bd
       -0.024021873 0.15741998 0.009975977 -0.035290737
0001f0 08 61 2a bc bf 12 61 bd bd 37 8f ba 51 a4 3a 3b
       -0.010399111 -0.05494952 -0.0010926645 0.0028479288
000200 f4 ac 58 3b e2 13 f3 bc 5e b2 ce be 3f 21 be 3c
       0.0033062072 -0.029672567 -0.40370458 0.023209212
000210 7c a3 a0 3c 8a 90 91 bc 35 01 16 ba 39 b1 e0 3c
       0.019609205 -0.017769117 -0.0005722226 0.027428256
000220 c1 a3 d6 bc c2 dc 57 3d 62 cc 38 bd af 3f 61 3d
       -0.02620113 0.052700765 -0.04511679 0.054992374
000230 89 37 e8 3c cf 84 51 bd 1b 03 59 3d 84 e6 37 3c
       0.028346794 -0.051152047 0.052981477 0.011224393
000240 8a c4 92 bc 8b 16 e3 3c 1b cc 9e 3c 70 e8 93 3d
       -0.017915983 0.02772071 0.019384434 0.07222068
000250 c8 1e 97 bd d3 be e6 3c 04 5d 49 bc 1f 2b 8c 3d
       -0.07378918 0.028167164 -0.012290243 0.06844162
000260 94 c5 1d 3d 84 ad ae bd e5 0f 15 3c 85 b3 94 bd
       0.038518503 -0.08529189 0.009098028 -0.07260803
000270 13 10 34 bd c2 1e 0d be 5a 78 ac 3c e2 a8 c5 3c
       -0.043960642 -0.13781264 0.021053482 0.024128381
000280 2c 84 09 3c ef e1 41 3d 1e e2 73 bd fc b4 3e bd
       0.008393329 0.047334608 -0.059541814 -0.04655932
000290 aa 1c 22 bd fc 66 2d bd e8 59 1f 3d 30 ab 07 3d
       -0.039578117 -0.04233454 0.0389041 0.03312224
0002a0 b2 9e 3a 3c bb 5a 09 bc 78 fb eb 3b b4 c0 81 bb
       0.011390375 -0.008383448 0.0072016083 -0.0039597396
0002b0 14 94 85 bd 36 9f 30 3d b8 40 a4 3c 72 00 c4 3c
       -0.06522384 0.043120585 0.020050392 0.023925994
0002c0 55 4d 2d bc ce a5 0b 3d 3c 1a a9 3c 50 39 e9 ba
       -0.010577519 0.03409367 0.020642392 -0.001779357
0002d0 c7 0d e8 bc 22 70 e7 bc 7e 4f 95 3d 41 9f b9 3b
       -0.028326882 -0.028251711 0.072905526 0.0056647365
0002e0 7d 07 df bc 47 2c d8 bb 84 71 1b bc 42 ae 68 bc
       -0.02722525 -0.006597075 -0.009487513 -0.014201703
0002f0 23 26 d8 bc d5 c6 1a 3d 0f 54 bf 3d 58 30 bb 3d
       -0.026385373 0.037787277 0.09342205 0.0914008
000300 13 53 8e 3d 2b 0d 14 bc 05 7e e8 3d 89 2d 4a 3d
       0.06949439 -0.009036343 0.11352161 0.049359832
000310 ec b8 79 3d 2c fd 72 3d f6 03 a6 3d ce 21 b9 3b
       0.06096737 0.059323475 0.08106224 0.005649782
000320 51 48 8a bc 81 ea 12 3b 93 1a b4 3d 62 bf 56 bd
       -0.016880186 0.0022417607 0.08794131 -0.05242861
000330 ce fa 98 3c 3d 16 da bc 8f df 59 bd 2e 89 42 bd
       0.01867428 -0.026621932 -0.053191718 -0.047494106
000340 53 48 c6 bc 9e d3 a4 bd e6 fb cf bd 32 38 01 be
       -0.024204409 -0.08048175 -0.10155468 -0.12619093
000350 06 75 8a bd f7 d0 bd bd 06 ae 60 bd a6 69 ae bc
       -0.06760602 -0.092683725 -0.05485346 -0.021290611
000360 ff 73 3e 3c 81 31 dd bc aa f7 c3 3c 5c d0 42 3d
       0.011624335 -0.027001144 0.023921806 0.04756199
000370 d6 f4 a9 3d 49 0f e8 3c 61 a3 be bc 21 28 bd bc
       0.08298652 0.028327601 -0.023271265 -0.023090424
000380 65 21 f8 ba 7e de 6e 3d 89 9d e6 bc 09 8c 1c bb
       -0.0018930851 0.058317654 -0.02815129 -0.0023887178
000390 c6 2b 8c 3c 62 86 50 3d 22 b9 7a 3c 9a 61 9c bc
       0.017110717 0.050909407 0.015302928 -0.019089509
0003a0 e9 99 13 3b a7 91 8b bb 04 3f f2 3c a9 f3 15 3c
       0.0022522158 -0.0042593065 0.029571064 0.009152331
0003b0 88 4c 91 3c 29 b4 f8 3b 45 c3 b1 3e 44 26 5d 3d
       0.017736688 0.007589836 0.3471929 0.05399157
0003c0 cb e3 59 bc ba 0f 30 3d 5e ef 48 3a b6 83 f3 3c
       -0.013298939 0.042983748 0.0007665063 0.02972589
0003d0 26 e1 b6 3c b1 e6 2c 3d 82 1d 31 bc 3e 7e 87 be
       0.022324156 0.042212192 -0.010810258 -0.26463503
0003e0 83 49 e1 bc e6 1f 86 3b d1 f6 e0 3c 60 9a 0d 3d
       -0.027500873 0.004093158 0.027461441 0.03457105
0003f0 16 4d 52 3d 62 f9 ce 3a b2 de 1d 3d 56 52 d0 3c
       0.051343046 0.0015790875 0.038542457 0.025429886

conv6.bias f4 [24]
000000 1b 65 92 3d 18 77 be 3d 54 a2 2c 3e b5 81 47 bd
       0.071481906 0.09300059 0.16858798 -0.048707683
000010 fb 78 58 bd c0 71 80 bd 6c ed 0a be e0 ff 14 3e
       -0.05284975 -0.06271696 -0.13567132 0.14550734
000020 83 78 ea 3c 75 0c cb 3d 4b c5 f1 3d 55 a4 90 3d
       0.028621918 0.09914485 0.11805209 0.07062594
000030 00 44 12 3b b4 51 38 bc 26 65 ea 3d 79 4c 28 bd
       0.0022318363 -0.011249948 0.11445074 -0.041088555
000040 12 69 2b 3e 5d f8 88 3c 7c 56 79 3e 20 a8 91 3d
       0.167393 0.016719991 0.24349397 0.071121454
000050 8b 6e f6 bd 80 de 2c be 8c ab b2 3c 1d 58 f3 3c
       -0.12032803 -0.16881752 0.021810316 0.029705102
