models/can_exp9_final.pt (torch_old, 475592 bytes, 54 tensors)

conv1.weight f4 [24, 11, 3, 3]
00000000: 0794 b5bd 5d74 2ebc e35f a2bc 2134 c6bd
00000010: e12d 063e 95fe 103c c611 0dbc e249 14bd
00000020: 3ee8 a2bc c34f 55bd a089 fbbb e072 8cbc
00000030: b71a d63d e50b eb3d 927b ab3d b342 11bc
00000040: 66aa c4bc 77f0 acbd 86a1 b1bd b684 0a3d
00000050: d790 003d 3a5f ad3d 0f44 433d 00cb 5d3d
00000060: 7c5d 463a b179 153d be8c 873d 5743 b4bd
00000070: 202a 9a3d 6c8f 98bd e3d4 babd b722 cebd
00000080: 0474 243d 59dd c23c ad2e c8bd 5187 10bd
00000090: ba7f 213d c8f3 2d3d 9f4f 423d 0e5d e33d
000000a0: 965a 8b3d eb9c dc3d ebd0 793d 42de e93d
000000b0: bc00 873d ff79 c23c 0572 8abd 0a6b 4fbd
000000c0: 1e56 ddbc 8a30 843c 71f1 cf3d 4a6c 3abc
000000d0: 2ca7 93bd 4dba be3d bfa5 afbd 2608 613d
000000e0: 84af b5bd b248 c5bc c7c7 203c 3126 fb3b
000000f0: 1d43 02bc 4126 8e3d dc1c d63d 2011 fa3d
00000100: 7a1d b0bc 77a0 2cbd 5aea fa3d e0c0 d73d
00000110: 18e0 05bd c317 7c3d 2c71 2cbd 4854 4c3b
00000120: be5d abbc cd55 a4bd 607c ee3d a322 3b3d
00000130: 6d33 90bd 2f52 20bd d2a4 edbc 1438 de3d
00000140: dce6 9abc 1cbd aabc 6f45 e93c e3c7 5d3d
00000150: 1154 8a3d a871 a53d 5779 6fbd 5de5 9dbd
00000160: f9c0 b93d 6e67 19bd 987c 18bc e248 7f3b
00000170: 1543 b73d a62e 113d 9a69 153e ff73 ad3c
00000180: 236d cfbc a7fd b03d ad47 723b 066e 123d
00000190: c36a 6bbd 80d0 983c eea8 59bd a2d4 afbd
000001a0: 8782 a13d 8d20 013e 41c3 8a3d 87a2 9b3d
000001b0: 3e73 0fbd 0d19 5dbe dbf7 5ebd 4843 35be
000001c0: 81af 58be f635 03bd 7c03 22bd 0fd5 68be
000001d0: ce3b f5bd c920 383d b7a5 f33b 5d9e dbbc
000001e0: 142b a73d 7bb3 3b3b 4cc1 08bd 7b4e 813d
000001f0: 04bb a9bd 6557 b63c a6d4 c8bc d3dc 80bd
00000200: b149 a53d bdc0 9f3d dbfc 7cbd 6c9d 293c
00000210: b588 a93c 75e0 98bd 081b 97bd 180b b33d
00000220: 57d3 8cba fbd6 123d 150e 51bd 4806 003e
00000230: b87d 73bc 1e65 dc3d a9f9 b73d cc74 353c
00000240: 3f43 f13c 46eb 3c3d f69e 7d3d 38ff 83bd
00000250: 3f63 243d b0f7 9ebd b884 ab38 4b7e fabc
00000260: aede 2fbd ed63 3bbd 3b15 7a3d 1046 9dbd
00000270: 308b 6e3b b5df c43c 213c 813d b7f9 09bd
00000280: 2960 90bd 86f2 293d 860f 1dbe fd28 48bd
00000290: b0ad 96bd 4c5e 3dbe c146 31bd 19c4 34bd
000002a0: e9d2 3cbb 9cb5 23be 78d5 31bd ebd2 b9bd
000002b0: fd23 8a3d cb3d bfbd 9b8b 3d3d f753 1f3c
000002c0: 93f3 b43c 9554 0cbd 2ac1 e2ba 6395 243d
000002d0: 9a11 043d 23a7 573d 665f e7bd a71f 5fbd
000002e0: 147e 303d b76a a1bd 8920 8d3d 1437 b13c
000002f0: c86f 803d 86bf 0e3d 6647 44bc c654 86bd
00000300: dac9 8abd 6e66 1d3d 51d6 c93c 3e1f 523d
00000310: 151b d6bc 5dc7 26bd 0caf 7e3d 6271 843d
00000320: b15c b83d ca09 353e 0300 aa3e 1cfd 283d
00000330: d7b9 14bd d8a1 313e f483 893d 6f7b 47bd
00000340: 1ae5 933a 5389 e0bd 6a7e 66bd 777d c13d
00000350: 50ec abbd 93b6 f6bd 08e1 bfbd d4e5 31be
00000360: 398a d4bd 9d16 533c 1ab6 f9bc 8891 663c
00000370: a080 a43d 0566 07bb ac59 813c 5fd3 b93d
00000380: 007a a53d 36d7 2d3d 06e7 da3c 8293 3a3d
00000390: dc66 563c ea46 43bd 8ee7 bdbc cf63 7c3d
000003a0: f61f 9bbd 9f04 b33c c5ec 20bd f2c3 55bd
000003b0: 3385 413d 04c7 c1bd 9ff2 7ebc 1724 ad3a
000003c0: 15b5 843d 6854 083c 3a81 fb3c 9de5 e3bc
000003d0: ce3b b13d 900d c3bc 163d 293c 7906 8b3c
000003e0: 524b ca3d 968c 9abd 8687 3c3d 40bd 53bd
000003f0: ae32 4bbd b4a2 523d 3d83 b4bc bfc5 78bd
-0.088661246 -0.01064786 -0.019821113 -0.096779115 0.13103439 0.00884976 -0.008610195 -0.036203273
-0.019886132 -0.05207802 -0.0076763183 -0.01714462 0.10454314 0.11476878 0.083731785 -0.008866
-0.024007034 -0.084443025 -0.08673386 0.03381797 0.03138813 0.08465429 0.047672328 0.054148674
0.0007567031 0.036493007 0.06618641 -0.088019066 0.07527566 -0.074492306 -0.09122636 -0.10065215
0.040149704 0.023787187 -0.09774528 -0.035285298 0.03942845 0.042468816 0.047439214 0.11101733
0.06804387 0.10772117 0.060990255 0.114193454 0.06591937 0.023739813 -0.06760029 -0.05063919
-0.027018603 0.016136426 0.10153473 -0.011378357 -0.0720962 0.09312878 -0.085765354 0.05493941
-0.088713676 -0.024082515 0.009813256 0.007664465 -0.007950571 0.0694089 0.10454723 0.122102976
-0.02149843 -0.04214522 0.1225173 0.10534835 -0.032684416 0.0615461 -0.042100117 0.0031178165
-0.020918723 -0.08024178 0.116448164 0.04568733 -0.07041059 -0.039140876 -0.029009257 0.1085054
-0.01890891 -0.020842128 0.028475491 0.054145705 0.06754316 0.08078319 -0.058465328 -0.07709763
0.0907001 -0.037452154 -0.009307049 0.0038953354 0.08948342 0.035444878 0.14591065 0.021173475
-0.025320595 0.0864213 0.0036968992 0.035749458 -0.057474863 0.018654108 -0.05313962 -0.08585478
0.07886224 0.12610073 0.06775523 0.07599359 -0.035022013 -0.21591587 -0.054435592 -0.17701447
-0.211607 -0.032033883 -0.039554104 -0.22737525 -0.119742975 0.04495314 0.0074355262 -0.026808912
0.081625134 0.0028640914 -0.033387467 0.06313797 -0.082876235 0.02225847 -0.024515461 -0.06292119
0.08070696 0.07800434 -0.06176458 0.010352474 0.02069507 -0.07464687 -0.07378203 0.0874235
-0.0010744137 0.035849553 -0.05103882 0.12502396 -0.014861517 0.10761474 0.08983166 0.01107521
0.02945101 0.04612281 0.061919175 -0.064451635 0.04013371 -0.077620864 8.178636e-05 -0.0305778
-0.042936973 -0.045749594 0.061055403 -0.07679379 0.003639888 0.024032453 0.06310297 -0.033685412
-0.07049591 0.041491054 -0.15337953 -0.048867214 -0.07357347 -0.18493003 -0.043280367 -0.044132326
-0.0028812236 -0.15987247 -0.04341647 -0.090734325 0.067451455 -0.09337958 0.046275716 0.009724609
0.022088801 -0.03426035 -0.0017299999 0.04018153 0.03224335 0.05264963 -0.11297493 -0.054473545
0.043088987 -0.07881682 0.06890971 0.021632709 0.062713206 0.03485062 -0.011979913 -0.06559138
-0.067767814 0.038427763 0.024638327 0.051299326 -0.02613596 -0.04071747 0.062178656 0.064669386
0.090020545 0.17679515 0.33203134 0.04125701 -0.036310043 0.17346895 0.06714621 -0.0487017
0.0011283488 -0.109636925 -0.0562729 0.09447759 -0.083946824 -0.12046542 -0.09369093 -0.17372829
-0.103779264 0.012883809 -0.03048234 0.014072783 0.08032346 -0.0020660174 0.01578983 0.09073519
0.0807991 0.04244157 0.026721489 0.04555083 0.013086047 -0.04767505 -0.023181703 0.061618622
-0.075744554 0.02185279 -0.0392883 -0.05218882 0.04724617 -0.09461787 -0.015560775 0.0013209608
0.06479851 0.008320905 0.030701268 -0.02781945 0.08653985 -0.023810178 0.010329505 0.01697086
0.098776475 -0.07546346 0.046027683 -0.051694155 -0.04960888 0.051424697 -0.022035236 -0.06073546

conv1.bias f4 [24]
00000000: e90b 83be 6d57 a73d 4dff 09be 36ad 553e
00000010: 14d8 54bd 30c9 ebbd 9f18 903e 67f6 c43d
00000020: 33fb e5bd 1da6 c13d a786 3d3e 20ab c6bd
00000030: 6e9f fe3c 98ff 9f3d a17e 56bd 16a9 943e
00000040: 939e 78bd b51d 3b3e 4774 653e 8817 de3c
00000050: 635b 91be b01d 83be af6d 14be 4f23 77be
-0.25595024 0.08170972 -0.13476296 0.20866856 -0.05196388 -0.11512983 0.28143784 0.0961731
-0.11229553 0.09455512 0.18508397 -0.09700608 0.031081881 0.078124225 -0.052366856 0.29035252
-0.060698103 0.18273051 0.22407638 0.02711083 -0.28390035 -0.25608587 -0.14494966 -0.24134563

conv2.weight f4 [24, 24, 3, 3]
00000000: 0e69 18bd 6176 38bc 7551 0c3d 6d67 8fbc
00000010: 11cb d2ba 1faf f5bd faa8 83bd abed 55bd
00000020: 1418 f9bb edfc f13d 70bc 5d3e 5d8b f13d
00000030: e432 933d b1da 2c3e 52de f03d 430b ea3d
00000040: 94ad 523d d136 133e eaad 813d b8da 883d
00000050: 3fd6 95bd 2016 37bd 056b 2e3d 6bb5 6bbd
00000060: 6988 c5bc 774d d9bc 87be 613c 820d c93d
00000070: ba3a 0fbb 3d70 a13c 1f5a 083d fff5 053b
00000080: 40b9 373d 7a36 cb3d 259c 183d f9dd 003e
00000090: ed3f 0fbb fbbe d53c fba5 e0bc 471d 943d
000000a0: 4493 5c3d 708a 2f3d 9180 303a 9b51 8f3c
000000b0: bf77 473d a154 483d b623 0ebc d928 ebbc
000000c0: c45b 243d b958 393d 2e5a 9a3d 8233 423d
000000d0: be17 513c 0784 a33c 03ef 6a3d ac7b 1abc
000000e0: 3d4b d93d 8741 fe3a 9ec8 c1bc 6a52 b13d
000000f0: 901d 593c b540 67bc 6a90 03bc b11f 783c
00000100: 0e9f a53c 9fcf 44bd d97b e33c eda0 5dbd
00000110: 5c2b 5b3d 2b6b ecbc 3ba2 03bd 7c38 7a3c
00000120: 2c18 1d3d 091d 8fbb a78e 7b3d e0bf bf3d
00000130: 1224 c23b 61c3 423c 4876 cf3c f273 683c
00000140: 7f82 b13d 7413 863d ab69 a03c b959 f6bb
00000150: 5407 c83c c1bd 49bd 62a7 f63c 9cfc 623c
00000160: bb56 dbbc c819 303d c4e2 81bd 0ec5 133d
00000170: 146d 433d 7af5 1dbd 9b21 6fbd 5863 9cbd
00000180: 92d9 4f3d a3a4 ad3b 1752 2dbd db28 203e
00000190: c145 f43d 7786 953d da8c d63d ef23 b33d
000001a0: 8d98 bd3d 57d2 9b3c fb23 ad3d ae3c 6d3d
000001b0: ba40 90bd 619e b03c 7447 883d d00f 293d
000001c0: d67d 8f3d 7172 843d fc96 3dbd baef 7fbd
000001d0: ec38 1c3c a073 af3c 2472 273d 0ad6 8e3d
000001e0: a953 a73d c3e4 d63c 6c15 bbbb c9cc 75bd
000001f0: 3af9 643c b61c 1abd b184 a53c ab8e 5c3d
00000200: 2e55 40bd 4b3e 63bd 0dc2 59bd b7d3 9bbd
00000210: 26a2 0cbd 6386 173c 3979 dbbc d1d2 94bc
00000220: 657d 8dbd 4dd3 7fbb d8a3 763c 0192 40bd
00000230: 348d a5bd b8bc b43c 9146 0ebd 4b29 46bc
00000240: c36a 673d 1306 093e 3874 de3c 13dd ab3d
00000250: 95fc 723d 9e55 a53d 588f 413d 8c75 963d
00000260: 444d fe3d 8d36 213d 8d69 d13d 9b33 323d
00000270: 12d5 db3d bcd9 073e d587 413c 10f5 fa3c
00000280: f8d4 073e d82c 243d f5c0 f53b ae1f 90bc
00000290: a4a0 77bd 08df 95bd a631 c2bd dcd8 c33b
000002a0: 3d2a 95bd 6c5b 33bd ebfc fabb f914 013d
000002b0: f3ae a1bd 1035 84bd f5ed 113d dd87 3cbd
000002c0: 184f 9ebd 30fc cbbc 9b91 463d b796 5b3d
000002d0: efee c23c fe7b 66bd 26f8 60bd 9522 50bd
000002e0: 97b3 6d3c d1fa 58bd 225c 99bc 8ea2 193d
000002f0: f471 823d 5c00 483d b063 42bd 2a91 433c
00000300: 447c 863d 022a 373d 0b1c 6cbd 0231 6bbd
00000310: 6832 b0bc 5e12 883c 029d 2cbc e5e7 63bd
00000320: e7ce a0bd 25ea a43c 5d2e 833d 90c5 e4bb
00000330: 7c4f 0bbd 4f5e bb3c 09c2 b5bd 8e0e e03b
00000340: 1d1d 8ebc e181 493d d7f8 a9bb 8309 c33c
00000350: 868b 453d 2d96 0ebd 8a12 c33c 2b85 a63d
00000360: 5325 013d c1ba 4ebd a645 053b fa92 383d
00000370: 5e89 413e 4c7a c03c 6a57 043c e957 733c
00000380: 08cf 1a3d 15c9 ea3a 1f00 09be f7f7 b33c
00000390: 1c57 48bd c050 e3be b466 05be 408a 5abc
000003a0: 4449 f8bd 3be8 4cbd 5077 1cbd 8fd5 fb3b
000003b0: acc0 613c b810 c7bd 3369 bc3d 3b1d 10bd
000003c0: 9aff e3bc 753c b53c 4ca4 eabc cdc7 b8bb
000003d0: 892a 7b3a 94c1 3b3d 0e7f fbbd a051 89bd
000003e0: 6b57 7fbd 1b60 a73d fe59 67bd e21e bd3c
000003f0: 8d02 be3c 4f5f cd3b cdcf c63d 5edf a33b
-0.037209563 -0.0112586925 0.03425737 -0.017505372 -0.0016082247 -0.11996292 -0.06428714 -0.05222861
-0.0076017473 0.1181582 0.21653914 0.117941596 0.07187441 0.16880299 0.11761154 0.11427929
0.05143507 0.1437638 0.063319996 0.06682342 -0.07316255 -0.044698834 0.04258253 -0.05754606
-0.024112897 -0.026526196 0.013778335 0.098170295 -0.0021855072 0.01970684 0.03328907 0.0020440815
0.044854403 0.099225 0.037258286 0.12584676 -0.002185817 0.026092043 -0.027422896 0.07232147
0.05385138 0.042856634 0.0006733025 0.017494967 0.048698183 0.048908833 -0.008675506 -0.028706001
0.040126577 0.04525063 0.07536732 0.047412403 0.012762008 0.019960416 0.057356846 -0.0094289
0.10610054 0.0019398191 -0.023655232 0.08658297 0.013251677 -0.014114548 -0.008030036 0.015144275
0.020217445 -0.048049565 0.027769016 -0.05410855 0.053508148 -0.028859695 -0.032137137 0.015272256
0.03835313 -0.004367475 0.06141534 0.09362769 0.00592471 0.011887402 0.025324956 0.0141878
0.08667468 0.06546679 0.019581636 -0.00751802 0.024417557 -0.04925323 0.030109111 0.013854172
-0.026774755 0.042993337 -0.0634208 0.036076598 0.047711447 -0.038564183 -0.058381658 -0.07636136
0.0507446 0.0052991672 -0.042314615 0.15640585 0.11927367 0.07301038 0.10476084 0.08747088
0.092576124 0.019021196 0.08454128 0.057919197 -0.070435956 0.021559896 0.066542536 0.041274846
0.07006423 0.064671405 -0.046286568 -0.06248448 0.009535056 0.021417439 0.040880337 0.069744185
0.08170254 0.026232129 -0.005709341 -0.06000975 0.013975436 -0.037625037 0.020204874 0.053846996
-0.046956234 -0.05547933 -0.053163577 -0.07608741 -0.034334324 0.009248349 -0.026791202 -0.018166931
-0.06908683 -0.0039035857 0.015053712 -0.04701424 -0.08083573 0.022062644 -0.034735266 -0.012094806
0.0564983 0.13381223 0.027155027 0.08391776 0.059322912 0.08072971 0.047255844 0.07346639
0.12417081 0.039358664 0.1022521 0.043506246 0.10733999 0.13266653 0.01181217 0.030634433
0.13264835 0.04008183 0.007499809 -0.017593231 -0.060455933 -0.073179305 -0.09482126 0.0059767794
-0.07283447 -0.04378836 -0.0076595447 0.03151414 -0.07894697 -0.06455433 0.035627324 -0.046028007
-0.0772993 -0.024900526 0.048478704 0.05361053 0.023795573 -0.056270592 -0.054924153 -0.05081423
0.01450815 -0.052973572 -0.01872069 0.03750854 0.06369391 0.048828468 -0.04745835 0.011936465
0.065666705 0.044717796 -0.05764393 -0.057419784 -0.02150841 0.01661032 -0.01053548 -0.055641074
-0.078519635 0.02013118 0.064053275 -0.006981559 -0.03401135 0.022872118 -0.088749 0.0068376726
-0.017347867 0.049196128 -0.0051871347 0.023808246 0.048228763 -0.034811188 0.023812551 0.081308685
0.031529736 -0.05047107 0.0020335703 0.045062043 0.18900058 0.023495816 0.008077482 0.014852502
0.037795097 0.001791271 -0.13378952 0.021968825 -0.0489112 -0.44397545 -0.1302746 -0.013338625
-0.12123349 -0.05002616 -0.038199723 0.0076853703 0.013778847 -0.09719986 0.09199753 -0.035184126
-0.027831841 0.022123555 -0.028642796 -0.0056390525 0.00095812284 0.045838907 -0.12280093 -0.06705022
-0.062339228 0.081726275 -0.056482308 0.023086015 0.023194576 0.006267465 0.097076036 0.0050009927

conv2.bias f4 [24]
00000000: df22 7fbd 5c27 06bd 534e 2bbe 710a d8bc
00000010: 6cab 04be 1e30 7c3c b139 303e 3fbd f13d
00000020: bccb 46bd 3e02 ac3d 3a6f 20be 16a2 e0bb
00000030: e5c4 39be e9bb 313e 3cdf febd 4fef b43d
00000040: 8f8a 053e 76c6 9d3d 7871 f13d 50f1 093e
00000050: 314b b7bd 3aab a83c a7bf 80bc 35aa a5bd
-0.062289115 -0.03275238 -0.16729097 -0.026372166 -0.12956017 0.015392331 0.17209508 0.11803674
-0.04853414 0.08398865 -0.1566743 -0.0068552596 -0.18141516 0.17356838 -0.12444922 0.08834707
0.13041137 0.07703869 0.117892206 0.1347096 -0.089498885 0.02058946 -0.015716387 -0.08089105

conv3.weight f4 [24, 24, 3, 3]
00000000: 325b e03c 340f f4bc 220b 7bbb 0163 96bd
00000010: ae8e 1dbd c9e8 fdbc 5b73 1a3d 2cc7 c5bc
00000020: 3ef6 003d 82d3 b23b 1bb5 82bd ca03 af3a
00000030: 105e 50bd 2f45 adbe 1f87 0ebd 76d5 89bc
00000040: 7036 1fba f646 56bc 5a32 02bd d542 1ebc
00000050: fe5c d13b 1633 a7bc e1d2 15bd 10c0 0a3b
00000060: bdb2 273d 2af2 25bd 48b8 f33c 0cf3 343d
00000070: d768 0dbe fac3 17bc cea8 9ebd 6c17 99be
00000080: 64aa 10bd d480 82bd f612 99bd c755 623d
00000090: b4fd 4c3d 21a0 2ebd c642 2b3d 5315 26bc
000000a0: 1b42 4ebe 879d 4a3d 89bb 163d 1349 27bd
000000b0: b9bc 803d b0ea 113d 65ae 56bd f80f 4e3d
000000c0: ffbe df3c 65dd 05be 8f46 ed3b a189 1c3d
000000d0: cefb cbbd 34a1 583d e286 93bc 376a 8bbb
000000e0: 5722 83bc a8fe ea3c 2cf9 8fbc 9219 d53d
000000f0: 4338 94bc 8371 98bc 8b9a 76bd f111 a93c
00000100: 760f aabd f8d3 2c3c 65ec 82bd a568 23be
00000110: d098 62bd 0cb9 c63c a8ea 613b 8530 88bc
00000120: 12a7 57bd 20a1 afba ecd7 7cbd 3a59 73bc
00000130: 9b66 703e e3d7 293d d70d 863c 4229 20bd
00000140: 7767 76bd ff38 9e3c 0951 14bd 2749 89bc
00000150: 8064 6b39 60d7 4a3e 81fb bd3d 3dba 51bd
00000160: 3687 693d c01e 13bd f4df 963c 1192 a83d
00000170: b870 25bd 52bc 2d3d cf01 c53d c783 bc3d
00000180: 1a66 f7b9 9fed 163c a183 f6bb bd32 81bc
00000190: 471d 8b3d ac88 393d f8ef 2b3d 2178 683e
000001a0: 95e9 223d df62 223d f1fb ab3d bbc1 fbbc
000001b0: b1a3 773b f1c5 50bd bfc8 f03c 9614 fdbc
000001c0: 3270 38bd 754e 2bbd 9771 d7bb 1f83 9f3b
000001d0: 7cd7 d8bb a597 14bd 2e7a ce3c 02ba 263c
000001e0: 380e 603d 0ef2 80bc 6ab2 83bd e4ed 15bc
000001f0: 6159 33bc bae7 903c 6101 c9bd 2fdb 3f3d
00000200: f991 b0bd 14d7 59bd fa8e af3d 101a c23b
00000210: a290 bcbc 0650 f4bd 4f4d 7ebc 42da 19bc
00000220: 752e 253d c56e 65bd 81d3 00bc ed00 4dbd
00000230: 8fc1 8ebd 5b0a 033d 8cd1 13bb fa87 7abb
00000240: da14 a33c 5ed1 a3bc cc6b 0abd 2824 c8b9
00000250: 9b7d 5c3d 30a1 333d 241b 87bc 7d11 11bd
00000260: ed61 3ebc 4fa4 c9bc f666 863b aac8 273d
00000270: 91b5 b8ba 31ae 1b3d 6c2d d33c 1d44 36bd
00000280: f2f2 00bd 17cc 2e3c 66f1 d4bb 0c6d 01bd
00000290: 6b6c ecbc 99f4 98bd 7709 943c d728 88bd
000002a0: adc4 103c c312 19bd 8887 213d 409e 5fbc
000002b0: 14f7 febb 586c 143b 814d eebb aae4 85bc
000002c0: 1d8b 1bbc 06b8 0d3b 47d4 f43c 143b 9f3c
000002d0: cf45 bc3c 5f36 a13d 0a9d aabc 0cbe e1bc
000002e0: d8fa 5fbd 97b3 3abc 07d8 52bd 19a6 7b3c
000002f0: 1500 0cbb a21f 94bc a541 7c3c ae5c bf3c
00000300: 0a7d b1bd 23b8 69bd 2e41 ccbc 2675 853b
00000310: 9450 bebd e357 0a3b af00 5f3d 5fc2 b2bc
00000320: 3fa5 a33d e24a 363d 0a36 bd3d a9ef d9bc
00000330: 8ccf 963b 53a0 833d 66a6 5f3d 3ea2 97bd
00000340: 0d90 4fbd cf04 36bd ea94 bcbd 5404 e2bd
00000350: ecf6 a8bd e673 30bc 3244 8dbd 3673 97bc
00000360: 20f6 9c3c 4d41 1bbd 42c6 e33c 1136 4b3b
00000370: 5574 393c 78f7 4a3c 1eef 63bc d5ea 97bc
00000380: 2494 e3bc 61e4 e4bc d4ca 6b3d 7457 9cbd
00000390: e583 313d 5de9 1a3e 89ca 403d 5775 8fbd
000003a0: 781f 95bb caf6 fbbc e80e 61bd c4f5 383d
000003b0: ecbf ba3c d0a8 2f3c 4e28 5d3e 98ab 1b39
000003c0: bbff 26bd 4f97 a0bb ec87 4cbc 9d7f 56bc
000003d0: 75bc cb3b 6c4d 88bd d696 edbb e6c5 263e
000003e0: e572 a83c 6d4e c3bc 0480 3f3d 5eed 25bd
000003f0: e619 2a3c a32a 0b3d 8586 5a3d 3445 b33c
0.027387235 -0.029792406 -0.0038306196 -0.07343102 -0.038466148 -0.03099479 0.037707668 -0.024142824
0.031484835 0.0054573426 -0.063821994 0.001335257 -0.050870955 -0.33841845 -0.03479683 -0.016825419
-0.00060734805 -0.013078442 -0.0317863 -0.009659489 0.0063892594 -0.020410102 -0.036578063 0.0021171607
0.040941942 -0.04051415 0.029750958 0.0441771 -0.13809524 -0.009263033 -0.07747041 -0.29900682
-0.035318747 -0.06372228 -0.0747432 0.055257585 0.050046638 -0.04263318 0.041811727 -0.01013692
-0.20142405 0.049466636 0.03679994 -0.040841173 0.06285996 0.035624206 -0.05241241 0.050308198
0.027312754 -0.13072737 0.0072410773 0.03821719 -0.09960137 0.05288811 -0.018008653 -0.004254605
-0.016007585 0.028685883 -0.01757487 0.10405268 -0.018093234 -0.018608814 -0.060205977 0.020638438
-0.0830373 0.010548584 -0.06392745 -0.15957887 -0.055321515 0.02425816 0.0034472141 -0.016624698
-0.052649565 -0.001339946 -0.061729357 -0.014852816 0.23476641 0.04146565 0.016364021 -0.039101847
-0.060157266 0.019314287 -0.036210094 -0.016758515 0.00022448786 0.19808722 0.09276486 -0.051203
0.057013713 -0.035917997 0.018417336 0.08230985 -0.0403907 0.042415924 0.096194856 0.09204822
-0.00047187583 0.009211927 -0.0075230156 -0.015771264 0.067926936 0.045296356 0.0419769 0.22702076
0.039773542 0.039645072 0.083976634 -0.030732026 0.0037786777 -0.05097002 0.029392598 -0.030893605
-0.045028873 -0.04182287 -0.0065748203 0.004867926 -0.0066174846 -0.036277432 0.025204744 0.010176184
0.05470106 -0.01574042 -0.06430514 -0.009150956 -0.010946603 0.01768862 -0.09814716 0.04683989
-0.08621592 -0.05318363 0.085721925 0.005923517 -0.023018185 -0.11929326 -0.0155213615 -0.009390416
0.040327508 -0.05601384 -0.007862926 -0.05004971 -0.06970512 0.031992298 -0.002255532 -0.003822802
0.019907404 -0.019997295 -0.03379421 -0.0003817391 0.053830724 0.043854892 -0.016492434 -0.03541707
-0.011620027 -0.024614481 0.0041016294 0.040962853 -0.0014092197 0.03800792 0.025778495 -0.04449855
-0.03148169 0.010668776 -0.0064985035 -0.031598136 -0.028860291 -0.07468528 0.01807092 -0.066484146
0.008835954 -0.03737141 0.039435893 -0.01364857 -0.007780919 0.0022647586 -0.007272423 -0.016344387
-0.009493616 0.002162458 0.029886378 0.01943735 0.022982506 0.078716986 -0.020826835 -0.027556442
-0.054682583 -0.011395357 -0.05147555 0.015359425 -0.0021362354 -0.01808149 0.01539651 0.023359623
-0.086664274 -0.057060372 -0.024933424 0.004072803 -0.09292713 0.0021109513 0.05444401 -0.021821199
0.079905026 0.044505008 0.09238823 -0.026603537 0.0046023782 0.06427064 0.05460205 -0.07403992
-0.050674487 -0.04443818 -0.092080906 -0.11035982 -0.082502216 -0.01076982 -0.06897773 -0.018487554
0.01916033 -0.037904073 0.027804498 0.0031007568 0.01131924 0.012388103 -0.01391199 -0.018544594
-0.0277806 -0.02794093 0.05756648 -0.07633868 0.043338675 0.15128084 0.047068153 -0.07004803
-0.0045508705 -0.030757327 -0.054945856 0.045156255 0.022796594 0.0107214 0.21597406 0.00014845876
-0.040771227 -0.00490085 -0.012483578 -0.013091949 0.006217534 -0.06655392 -0.007250647 0.1628643
0.020562598 -0.023841107 0.046752945 -0.040509574 0.010382151 0.03397621 0.053350944 0.021883585

conv3.bias f4 [24]
00000000: 4849 f8ba 5aed 393e dda0 803c 8ade 3dbe
00000010: 141b 903d d513 80bd b60a d7bd 058c b5bd
00000020: d493 eb3d ecc8 893d 9aa6 2bbe d1d5 54be
00000030: 4c7d 4e3d 70e9 0c3e b4a4 843c 953d 05be
00000040: e00b 02be 99f2 88bd 27db a1bd afe4 31be
00000050: 8169 263c 3ab1 1ebd ce69 1ebd 998d f2b9
-0.0018942738 0.18156949 0.015701706 -0.18541923 0.07036415 -0.06253783 -0.1050009 -0.08864597
0.11502805 0.06727776 -0.16762772 -0.2078469 0.05041246 0.13760924 0.016191818 -0.13011773
-0.12699842 -0.06686897 -0.07903128 -0.17372392 0.01015699 -0.038743235 -0.038675122 -0.00046263335

conv4.weight f4 [24, 24, 3, 3]
00000000: 307c b83b b0db 94bd d611 213d 2179 13bd
00000010: d4ad 44be 8973 b83c b366 65bb 69b3 a5bd
00000020: 6538 49bd bc3c eabb 0ddd ae3d 3e37 52bb
00000030: 4766 a1bc c5b9 6a3e aafe 2fbd fa59 bcbc
00000040: fdbc c4bc 2cb4 93bd 5910 bf3c b369 363d
00000050: 38bf b83a 9958 a73d fe8f 50bd 497f 2f3d
00000060: 246f 68bb 017e 50bd 3c76 44bd c756 29bb
00000070: c5db 093d 1d16 44bc d157 1abd 0abc 9b3d
00000080: 28f0 abbb b233 d7bc 0103 83bd 2c36 69bc
00000090: 1f30 35bd 6dd5 f8bb c26a 383c 4f71 ac3d
000000a0: 349c 54bd 28d5 2e3d ec57 64bd a467 933d
000000b0: 0ce0 9d3a d618 1f3d 6263 4cba 50cd 973d
000000c0: 3f87 61bd 7aae 36be d122 72bb 4220 aebc
000000d0: dc51 60bc b952 c43b 0848 953c e0ef 4d3d
000000e0: 3a83 b13d 6bf2 64bd f991 febd 0328 323d
000000f0: 925f debc b4d7 3ebd 3c7f 3d3d 5542 453b
00000100: 473e 4b3d 6b30 c2bc 450b 393c a071 973d
00000110: 44ec 3fbd 4e98 30bc e7aa 1fbc 0f42 db3b
00000120: f454 e83d cba4 3bbc 43c3 393d 8cb3 b53d
00000130: 7ab9 b23d 1097 6f3d 5376 233e 5926 da3d
00000140: 5625 0e3e 31d2 063c c6c1 753a 7c5e e8bc
00000150: 5e36 bbbc e4aa a5bd 8c8a 6f3d 8058 a43d
00000160: d263 b03c aa26 283d 8462 4e3b 141e dbbc
00000170: ab68 11bc ab49 9cbc 53bc 8c3d 539f b13c
00000180: d979 5c3a 8906 adbc 9a7c a7bd 8f0f 45bd
00000190: b3b7 93bd 1d73 2ebd f4db e5bb 821f a6be
000001a0: e482 02be 295f 97bc 3765 80bd bf12 96bd
000001b0: f812 033b 2057 11bd 52f9 73bd 21ad 85bd
000001c0: 7ae9 d3bd 177f dfbc 159f 99bd 0d20 0cbe
000001d0: 0398 b1bc 7b0d 9dbc 9bde a7bc cd79 a2bb
000001e0: 3fc7 87bc bec3 75be f17e 16bd e67f b83d
000001f0: 6de6 b33b 2799 2e3d d56c c1bb c73a f33c
00000200: f7f8 cf3a a88a 4cbd 52ca 65bd bb65 c73c
00000210: 503d c03c 3c1f 91bb e877 acbc eed9 2dbd
00000220: 080a f9bd 1d9a 38bd 3eb6 bf3c 485a dc3d
00000230: 5035 073c 9435 3dbd 62c1 093b e64e 97bc
00000240: 6937 3cbc 5852 90bc 7034 a73d 9f21 01bc
00000250: 22c2 413d cc79 b63c 309a 1c3d eb16 053d
00000260: 7cf0 ac3d 3f50 203d c180 aa3d 6872 f73c
00000270: 0e72 f8bc 663d f03c d742 b5bb 717c 63bb
00000280: 122b 8cbd 89f8 ab3c 6d44 f03d 1a97 c63c
00000290: d9e4 a03c 7d44 9abc 841e 703d 122d c73b
000002a0: bd31 2ebd d8e7 1fbd a4df 67bd bc17 f13c
000002b0: 6ac7 bd3c b61c aa3c 68ac 0b3d 7265 293e
000002c0: bbfc 593d 6514 dfbc 515e 943d 6c48 a4bb
000002d0: 8453 11bc 6d5c 41bd 16e9 b6bb 3940 70bd
000002e0: 215b 31be c818 8d3c 8883 6c3d fe4c 263c
000002f0: b0b9 c33c bc52 0b3d d0fa aa3d 9e31 ca3d
00000300: e174 e13d ae84 363d 4161 da3c 9377 013e
00000310: 7d40 e63d 36f8 a33d 5eb1 9abd f2e1 32bb
00000320: 54e7 29bd a9e7 873d 2ba3 96bd 1469 9a3d
00000330: 0bde 0cbd 9fd1 623c 0535 88bc 0286 f8bc
00000340: c300 df3c a967 7ebc 6e5d 573d 2026 a73c
00000350: c323 b4bc 9e42 18bd 0a1e 3ebc 82d6 86bb
00000360: 313b 423d 30a3 33bd 9fda e13c 3db8 d7bb
00000370: 282f c7bd 69a8 14bd c397 f7bc 7b73 373d
00000380: 6b47 b9bc 55f7 62bd e640 b73c e1a4 b9bc
00000390: 31b7 6fbc 2361 4c3e 203a ea3c e3de ac3b
000003a0: 47e8 cfb9 2ba2 03bd 6273 6fbd d921 f83c
000003b0: 50c2 30bd 5565 2a3d 5a09 f93c 594b 03bc
000003c0: 9017 4d3d 8933 7ebb c9e1 3abc 542f 35bb
000003d0: 84a8 b938 7ef7 f1ba a8f4 433c ee21 d7bd
000003e0: 26e1 58bc 47e6 933c bf97 2c3d 8b2a 9cbc
000003f0: 4d27 f1bb c9b6 e4bc cec5 9abc f556 183c
0.0056300387 -0.072684646 0.03932365 -0.03600419 -0.19206935 0.022516029 -0.003500384 -0.080908604
-0.049126048 -0.0071483534 0.08538256 -0.0032076384 -0.01970209 0.22922428 -0.042967476 -0.022992123
-0.024015898 -0.072120994 0.023323225 0.044534396 0.0014095074 0.081711955 -0.05091857 0.042845998
-0.0035466636 -0.050901417 -0.04796432 -0.0025839077 0.033656854 -0.011968163 -0.037681405 0.07604225
-0.0052471347 -0.026269767 -0.06397057 -0.014234107 -0.044235345 -0.0075938017 0.011255922 0.084200494
-0.05190678 0.04268375 -0.05574791 0.07197502 0.0012044921 0.038842045 -0.00077967916 0.07412207
-0.05506062 -0.17839995 -0.0036947022 -0.021255616 -0.013691392 0.0059913066 0.018222824 0.05027759
0.086676076 -0.05589525 -0.12430186 0.04349519 -0.02714518 -0.04659243 0.04626392 0.0030099351
0.04961994 -0.023704728 0.011294191 0.07394719 -0.04685618 -0.0107785 -0.009745336 0.0066912244
0.113443285 -0.011452864 0.04535223 0.088721365 0.08726783 0.058493674 0.15963106 0.106518455
0.1388143 0.0082288245 0.0009374883 -0.028365366 -0.022853073 -0.080892354 0.058481738 0.080246925
0.021531973 0.041052498 0.0031491825 -0.02674774 -0.008875052 -0.019078096 0.068718575 0.021682417
0.00084104907 -0.02112128 -0.08178063 -0.04811054 -0.07212772 -0.04259025 -0.007014746 -0.32445914
-0.12745243 -0.018477993 -0.06269305 -0.07327794 0.002000032 -0.03548348 -0.059563942 -0.06527162
-0.103472665 -0.02728228 -0.075010456 -0.13684101 -0.02167893 -0.019171467 -0.020491889 -0.0049583674
-0.0165745 -0.24000451 -0.036742155 0.0900877 0.0054901154 0.042626526 -0.0059028664 0.029691113
0.0015867044 -0.04993692 -0.05610115 0.024340501 0.023466736 -0.0044287723 -0.02105327 -0.042444162
-0.121601164 -0.04506885 0.02340233 0.10759407 0.008252457 -0.046193674 0.0021019806 -0.018470239
-0.01148782 -0.01761739 0.081642985 -0.007881551 0.04730428 0.022274874 0.038232982 0.03249256
0.08444306 0.03913903 0.08325339 0.03020592 -0.030327823 0.029326152 -0.0055316496 -0.0034711624
-0.068441525 0.020992534 0.11731801 0.024241973 0.019640373 -0.018831486 0.058622852 0.006078371
-0.042527903 -0.039039463 -0.056609765 0.029430263 0.023166377 0.020765644 0.034099966 0.16542605
0.05321954 -0.027231405 0.07244552 -0.005013516 -0.008870009 -0.047207285 -0.005581985 -0.058654997
-0.17319919 0.01722373 0.057742625 0.010150192 0.023892254 0.03401445 0.0834862 0.09872745
0.11008621 0.044560127 0.026657702 0.1264327 0.11242769 0.08006327 -0.07553361 -0.0027295318
-0.041480377 0.066359825 -0.073553406 0.07539573 -0.034391444 0.013843923 -0.016626844 -0.030337337
0.027222043 -0.015527644 0.052579336 0.020403922 -0.021989709 -0.037172906 -0.011603842 -0.004114927
0.04741973 -0.0438568 0.027570067 -0.006583242 -0.09725791 -0.03629342 -0.030223733 0.044787865
-0.022617063 -0.055411655 0.022369813 -0.022661628 -0.014631079 0.1995893 0.02859217 0.0052755936
-0.00039655177 -0.032137077 -0.058459647 0.030289577 -0.04315406 0.041600544 0.030399967 -0.00801357
0.0500713 -0.0038788042 -0.01140637 -0.0027646618 8.852876e-05 -0.0018460599 0.011960186 -0.105045184
-0.013237273 0.01805414 0.042136904 -0.019063255 -0.0073594213 -0.02791919 -0.018893149 0.009298076

conv4.bias f4 [24]
00000000: be2d a1bd edc5 6c3d 69b8 54bd c3db 0dbe
00000010: 13a4 98bd 5020 1dbc d44e 7d3d 6fbf 683d
00000020: 7a5f 9b3c 282d 6c3d 7aba a03c 3bd0 783c
00000030: 41e2 793d 6bc1 a33d b6c2 16bd 0ff5 74bd
00000040: cc66 b63c 2c14 3f3c 1ae4 303e 9775 e93c
00000050: ca40 2bbe 7e88 8e3d d1e9 08bd c03f 91be
-0.07870053 0.057805944 -0.05193368 -0.13853364 -0.0745317 -0.009590223 0.061842754 0.05682319
0.018966425 0.05766025 0.019620169 0.015186365 0.06100679 0.07995876 -0.036806785 -0.05980402
0.022265814 0.011662524 0.17274514 0.028498454 -0.16723934 0.069596276 -0.03342611 -0.2836895

conv5.weight f4 [24, 24, 3, 3]
00000000: cdeb 923d 3932 6cbc a8fa e63b 1dd3 e83c
00000010: faa3 90bc 42f0 2ebb 11aa 353e 0cd6 4c3c
00000020: 7ca3 8a3d 4687 44bc f4d6 e2bc 7613 dbbc
00000030: a41e e9bc 17bf 313d faa1 7bbc 133a ed3c
00000040: cd9a dcbb 93b8 a33c ac54 20bd 81c1 7d3d
00000050: 88f5 5fbc 04da ec3b 7267 ccbc 4d31 653d
00000060: 4a8d 8bbc d8ba 39bc 7fc9 81bc b6c9 ac3b
00000070: 8df7 943d 0757 1c3c 196e 033e 81c1 153e
00000080: 8495 f2bc 19b7 38be 108e a9bd 639f 28be
00000090: 1257 69bc ace5 8a3c 0da7 c438 bd94 473d
000000a0: bc93 d3be 5bb6 62b9 533e 8c3c 97fc ed3c
000000b0: de94 473c fd4d 543d febb aa3c 1b18 793c
000000c0: df55 583d 58cc d83d 8598 cd3c 0f45 abbb
000000d0: 0421 343d 6082 76bb 1413 fdbc b866 86bd
000000e0: 6f12 9f3b f1a7 8cbd fd74 87bc 6fe7 84bd
000000f0: a98e 543d c07c 63bd 9f12 673c 1ca3 c83c
00000100: 8277 783c 3ad8 17bc 7498 693d 1e64 00be
00000110: f7fe 78bb bf66 ca3c 266f 0c3d e4f9 04bd
00000120: 9ae6 933c db92 5f3c a4a0 a33b 3688 673a
00000130: cfaa 88bb 8ecf 743d bb2d 563c 1a06 153d
00000140: aa21 ddbc de19 e83c a29e df3c 60fb f93c
00000150: 2939 493c e3f6 413e c4c2 5c38 6ff1 df3c
00000160: 518f f7bc e04b 6c3d 182f 00bd 2d5a 2ebd
00000170: f4b2 fbbc 0995 0abd e0f5 523d 7152 3abd
00000180: ada8 72bc dd18 023c 4207 8a3b 66be 1cbc
00000190: fc37 4bbd 1c6e b9bc 4f2d ad3c 17ae a43d
000001a0: 684b f4bb fa2e 23bd 44da 453c fa64 06bc
000001b0: f732 553c b257 bf3a 9701 af3c 27b5 cb3c
000001c0: 58c9 ad3d 530e 6f3c 04a7 133d 7783 b33c
000001d0: b159 4f3c 153b 393c cad2 633d 1099 b33c
000001e0: c421 19bc ee5b 3f3e f9e1 a4bb 57a6 eebd
000001f0: 4cbb e2bd 6c15 22be acde 6b3d b263 743d
00000200: c5d9 c93c 4dcd bd3c 8f0d 04be 806f 813c
00000210: 9a23 023d 8fd5 cebc a425 b5bc f6e5 ecbc
00000220: 165d 58bd f3f3 47bd 9d5d 47bd 1487 41be
00000230: c8eb 83bc 1a3f 33bc 198a 913b 3342 53bd
00000240: 7f12 0cbd 351d 83ba 27b3 0d3c dd5f dbbb
00000250: 9ce8 883e 4dcb 30bd 4acc 2d3d 3966 b43c
00000260: e393 3dbd e643 ba3c 3f06 e1bc 437d 303d
00000270: ebdb a33d 373a 70bd f3d4 06bd 4a19 483d
00000280: 8a87 943b 406b 853d 94bf ea3c 882e c83c
00000290: dbaa 1f3d bc1c 57bd 1e0b 4d3e 720a 5e3d
000002a0: 048f 93bc 8618 a3bb 2060 08bd 9978 853b
000002b0: 0a5a 7abc 9716 23bd e67d ca3c dc07 2ebd
000002c0: d480 cc3b 5151 083c ca7c ffbb 2768 f7bc
000002d0: e2ed cb3c ac56 453d c290 243c c567 373d
000002e0: 66b7 8e3d 44aa 01bc 0fd3 3fbc 4905 8c3d
000002f0: ff10 a13c b448 a0bc 75a9 a0bd 1dbf 923c
00000300: 267a 6abd a0de 973e 4de5 6cbc ebb6 d5bc
00000310: a0b9 97bc 0504 9bbd 4ed7 c3bd 9785 e93c
00000320: cef0 913b 5b73 aebd b4c5 9e3d e793 f2bc
00000330: e5e1 23bd 6942 2d3a 7508 0dbd b277 09bd
00000340: 941e a13d 4b22 b03c 4761 69bc d239 4ebc
00000350: f30e 8b3d 57c0 0ebd f284 18bc f19e 6fbd
00000360: 57d8 6bbd 5ca1 92bd 5750 82bc b6bc 58bd
00000370: 7e15 c5bd 131c d3bc cb7b c13c 6f3e 4d3c
00000380: fa62 26bc c3e1 aabc d0f3 da3d 9665 313d
00000390: 4385 5b3d 41ca 0ebc bd18 cd3d d27d 1fbb
000003a0: d9ab af3c 3acf d03d b102 ba3c 7c9f 60bd
000003b0: a2a8 de3c 517f c7bc 44af fa3c de99 94bc
000003c0: 6b19 3d3d 6949 6b3d 77c5 1dbd c07b 0f3d
000003d0: ee07 6f3c cbe3 b03c 2e20 36b9 623b 383c
000003e0: 2b10 693c 92e5 9fbd e800 553d 76cd 57bb
000003f0: 4878 91bb ae2c dabc ad91 17bd 891f c93b
0.07173882 -0.014416271 0.0070489235 0.02842098 -0.017656315 -0.0026693498 0.17740656 0.012502205
0.067694634 -0.011995142 -0.027690388 -0.026742678 -0.028456993 0.043395128 -0.015358442 0.028958356
-0.006732321 0.019985473 -0.03914325 0.061952118 -0.013669379 0.007228138 -0.02495167 0.05595522
-0.017035145 -0.011336051 -0.015843151 0.0052730693 0.07273779 0.009542233 0.12834968 0.14624597
-0.02961231 -0.18038596 -0.082790494 -0.16467051 -0.014241951 0.01695522 9.377124e-05 0.048725832
-0.4132365 -0.00021620972 0.017119562 0.029051108 0.012181489 0.051832188 0.020841595 0.015203501
0.052816268 0.105858505 0.025097141 -0.0052267383 0.0439768 -0.003761433 -0.030892886 -0.06562561
0.0048544924 -0.0686797 -0.016535277 -0.06489455 0.051893864 -0.055538893 0.014103561 0.02449184
0.015165212 -0.009267861 0.057030156 -0.12538192 -0.0037993768 0.024707196 0.034285687 -0.032464877
0.018054295 0.013645853 0.004993515 0.00088322477 -0.0041707526 0.059768252 0.013072426 0.036382772
-0.026993591 0.028332647 0.027297322 0.030515373 0.012281694 0.18941836 5.2633477e-05 0.027336804
-0.030219706 0.057689548 -0.031294912 -0.042566467 -0.03072498 -0.033833537 0.051504016 -0.04548878
-0.014810723 0.007940498 0.004212291 -0.009566879 -0.049613938 -0.022635512 0.021139769 0.080410175
-0.007455278 -0.039839722 0.012075964 -0.008202786 0.013012639 0.0014598279 0.021363063 0.024866654
0.08485669 0.0145908175 0.03604795 0.021913273 0.012655661 0.01130559 0.055620946 0.021923572
-0.009346429 0.18687412 -0.005031821 -0.116528206 -0.1107088 -0.15828484 0.057585403 0.05966539
0.024639973 0.023169184 -0.12895797 0.015800238 0.031772234 -0.025248317 -0.022112675 -0.028918248
-0.05282315 -0.048816632 -0.04867326 -0.18899184 -0.01610364 -0.010940338 0.0044415114 -0.051576804
-0.034197327 -0.0010003211 0.00864867 -0.0066947774 0.26739967 -0.043162633 0.042431153 0.0220214
-0.046283614 0.022737455 -0.027468799 0.04308821 0.080009304 -0.058649268 -0.032917928 0.048852243
0.004532759 0.06514597 0.028655805 0.02443625 0.0389813 -0.052517638 0.20023772 0.05420918
-0.018012531 -0.0049772887 -0.033294797 0.0040732143 -0.015280256 -0.039816465 0.024718236 -0.042487964
0.0062409434 0.008320169 -0.0077968584 -0.03020103 0.024893705 0.04817836 0.010044279 0.044776697
0.06968574 -0.00791413 -0.011708035 0.068369456 0.019661425 -0.019565918 -0.07844821 0.017913396
-0.057245396 0.29662037 -0.014458966 -0.026088199 -0.01852113 -0.07569126 -0.095625505 0.028506083
0.004453755 -0.08518096 0.07752553 -0.029611541 -0.04001035 0.0006609322 -0.034431893 -0.033561416
0.078671604 0.021500727 -0.014244384 -0.012587028 0.06789961 -0.0348514 -0.00930904 -0.058501188
-0.057579365 -0.07159683 -0.01590745 -0.052914344 -0.0962324 -0.025770223 0.0236186 0.012527092
-0.010155434 -0.020859605 0.10691035 0.04330977 0.053593885 -0.008715213 0.10014484 -0.002433647
0.021444248 0.10195775 0.022706361 -0.054839596 0.02718002 -0.024352701 0.030601151 -0.018139776
0.04616682 0.057443056 -0.038518395 0.035030127 0.014589293 0.021592995 -0.0001736886 0.011244627
0.014225046 -0.07807459 0.052002817 -0.003292886 -0.0044393875 -0.026632633 -0.03700416 0.0061377925

conv5.bias f4 [24]
00000000: 32cd 58bd 398a 2f3d 79a9 453c f279 a53d
00000010: 8198 43bd 2fd5 533d e52b 8eb9 403d eb3c
00000020: 3826 a73c 2f63 b03d b112 e73d 5b26 91bc
00000030: 3291 38be 0d2a 4a3c e28f ccbc 5844 983d
00000040: 4a53 b03d a36e 14bd 37a1 8abd b413 b43d
00000050: c2c9 693d 1e3f ff3d c75e 70be 434d fc3d
-0.052930064 0.04285643 0.012064331 0.080799 -0.04775286 0.05171698 -0.00027117055 0.02871573
0.020403966 0.08612668 0.11282862 -0.017718485 -0.18024138 0.012339127 -0.024970952 0.074349105
0.08609636 -0.036238324 -0.067690305 0.087928206 0.057077177 0.124632105 -0.23473655 0.12319424

conv6.weight f4 [24, 24, 3, 3]
00000000: baa6 c33d da94 363d 3ecc 8a3d a5e7 043d
00000010: 90f4 a2bd c4d8 a23d 5246 fb3d 0d62 6a3d
00000020: d80d 983d 43cd 1c3d ee99 c5bc 64cd a9bc
00000030: f3bf 11bd b3f2 29be d286 36be aa12 91bd
00000040: 2908 02be f769 b7bd c519 8e3d 7887 103e
00000050: 6173 993d 5fb7 dc3c 525b 1eb8 1aec d3bc
00000060: e745 85bd d4fb 49bd 0354 70bd 52fc c7bc
00000070: d5b1 07bd 2031 77bd 658e 56bd eb45 dbbc
00000080: ff31 cc3a 7492 023c 9f1d 313c 7c2a 8dbd
00000090: 0f0b 153d c6bf e93d 37db 963d 2ce6 813d
000000a0: a2b2 c83b f49e 933b e277 debc e1af 483c
000000b0: 3306 cbbd bceb d2bc 93fb 2dbd 94db d8bd
000000c0: 0f25 91bb 3c3a 293d 6aea c63a 8165 3f3d
000000d0: 036d 933c e428 a63c d7e5 703d 1300 103d
000000e0: 584c c73d da16 2d3d 291b 4dbd d9ea e8bb
000000f0: 4e59 c43b 1e78 3bbd d3d8 133d 6f73 3fbd
00000100: ee53 55bd 2a2f 85bd 349e 56bd 571c 46bd
00000110: 25b1 4bbd 655b cfbd 52f5 a0bd f6f7 85bd
00000120: 0f51 c6bb 5b0b bb3c 5063 1d3d 5030 1c3d
00000130: ec5e 3b3c c3bf c8bc 77ab 7b3c 2b28 dc3d
00000140: 23ab 723c e9ab 423d 8e05 2bbd 6201 50bd
00000150: 39bf e8bd 6660 423b 4153 3abd 618b f43c
00000160: 915d 96bd db1e 803d 51c2 313c 824d 33bd
00000170: 20ad 58bd aa18 6cbd 3008 50be 1697 3b3c
00000180: 8431 8d3d 14f1 f6bc f6d7 d0bc 6c5e 7cbd
00000190: c05f 9fbd 7781 bbba acdb 66bd 9ab6 e03c
000001a0: 6fb1 373c 44e9 6fbd d892 04bd d3d8 2abd
000001b0: 83b0 2bbd 78d3 2fbd 4f8c babd b6cb 87bd
000001c0: 375a 873d a7f5 95bd ab4c b8bd 0f2f 7bbd
000001d0: b49a 02be c804 6a3d 51f4 433c 849f aebb
000001e0: 9774 a0bd 15d4 33bd 4c93 cb3c a865 4e3d
000001f0: 5729 45bc 3aea 1bbd 2f1f 0bba c071 083d
00000200: bc8a 9ebd 50aa a4bd b9a0 293e 42f3 40bd
00000210: 2aad f2bc 1216 dd3c 2c6a 1fbd 5102 cb3d
00000220: b5e2 fabb 0aa6 343d 9051 893d bd94 28bd
00000230: 1e76 87bd e4c8 8c3c c1ee 9dbd 08ee fe3c
00000240: e17b 653d 5d1f ad3d 93df e3bc 3f31 c53c
00000250: 890a 38bc 6ef2 7cbc d06c b13d 3bb6 563d
00000260: cf33 da3d f801 24bd 2d4a c0bd 01a4 8bbd
00000270: 6226 04bd 2451 4cbe 7f2c c4bd 22a1 71bd
00000280: 77f9 72bd e4dd a0bc 8518 1d3e 554f 0a3e
00000290: 7ff3 173e 6d58 3e3d defd 75ba b533 c43d
000002a0: 399d 7f3d e1c9 243d 99dc ca3d f0b9 b93c
000002b0: 05c7 cebc 47fe 333d 70dd 06bb b480 ee3d
000002c0: 066a f23c 8495 99bc 8a83 883d 8f5a eb3d
000002d0: f8b3 fcbc 7a6e 86bc 8bbe 89bc 0dab c1bd
000002e0: 810a 09bd fe6f 2dbc 22e7 88bc dbd1 b7bd
000002f0: 823a 7dbb bd7b 51bd 1e0d aebd 2cb5 91bd
00000300: 6f06 93bd 8079 393d dbc2 f5bc f633 063d
00000310: 376f 4abd cf05 963c 3587 afbd 2cb3 92bd
00000320: ffc7 8cbc b69a 9dbc 2bef 52be 5fb1 e4bb
00000330: 994f bcbd 26bf d9bc 52e3 03be 0365 9d3d
00000340: 2ea7 623d 2ba4 873d 890d 09bd 50de 6abe
00000350: cb81 1fbc 609c b6bc 6052 f6bc 752f 2f3d
00000360: 5d92 143d d778 23bd 7c87 81bd d10b 15bd
00000370: b28d a83d d999 903c c928 7dbc 77d4 cfbc
00000380: 20f1 e43c 9b4c ffbc 0dad aebc 49d1 03bd
00000390: e107 223d a25c 99bd fadd c5bd 49ec 8a3d
000003a0: 2bd1 acbd 9910 4bbd c34e 5f3d 7989 d73d
000003b0: 1f38 333e 6f44 9bbb 0ad0 b3bd 468d f5b9
000003c0: 5686 3a3c 2c22 70bb 1e4e cab9 8b98 05be
000003d0: 3f1d f6bd 774e 7fbd d960 a3bd 2059 69be
000003e0: e014 ebbd 9960 87bd 9a4b 32bd cbe4 86bd
000003f0: 5d08 743d 9c9b 533d 56b0 053d 045d 303d
0.09553285 0.04457555 0.06777237 0.032447476 -0.07956803 0.07951501 0.12269272 0.057222415
0.074245155 0.03828169 -0.024121251 -0.02072782 -0.035583448 -0.16596489 -0.17824867 -0.07083638
-0.12698425 -0.08955758 0.06938509 0.14114177 0.0749271 0.026942907 -3.7755184e-05 -0.025869418
-0.065074734 -0.049312428 -0.05867387 -0.024412308 -0.03312858 -0.060349584 -0.05238189 -0.026766738
0.0015578865 0.007969487 0.010810285 -0.06892869 0.0363875 0.11413531 0.07366031 0.0634273
0.0061248103 0.0045050327 -0.027156774 0.012248964 -0.09913292 -0.025747173 -0.042476248 -0.10588756
-0.0044294666 0.041315302 0.0015176062 0.04672766 0.017996317 0.02028317 0.058812942 0.03515632
0.09731358 0.04225812 -0.05007473 -0.007108074 0.0059920913 -0.04576885 0.03609545 -0.046740945
-0.052081995 -0.065031365 -0.052396968 -0.04836687 -0.049729485 -0.10124854 -0.07859291 -0.065414354
-0.0060521434 0.022832563 0.03842479 0.038132012 0.011436205 -0.024505502 0.015360705 0.10749849
0.01481131 0.047527228 -0.041753344 -0.05078257 -0.11364598 0.0029659509 -0.045489553 0.029851617
-0.07342065 0.06255885 0.010849551 -0.04377509 -0.05289948 -0.05764071 -0.20315623 0.011449596
0.0689421 -0.030144252 -0.025493603 -0.061613485 -0.07781935 -0.0014305551 -0.05636184 0.027430821
0.011211737 -0.05857207 -0.032366604 -0.041710686 -0.04191638 -0.04292628 -0.09108793 -0.06630652
0.06609004 -0.07322245 -0.08998998 -0.061324175 -0.12754327 0.057133466 0.011960105 -0.0053290743
-0.07834738 -0.04390343 0.02485051 0.050389916 -0.012033782 -0.038065173 -0.0005307076 0.033311605
-0.07741305 -0.08040297 0.16565217 -0.04710699 -0.029623587 0.026988063 -0.038919613 0.09912551
-0.00765642 0.04410366 0.0670501 -0.041157473 -0.06614326 0.017185636 -0.07711554 0.031119362
0.056026343 0.08453248 -0.02781657 0.024071334 -0.0112329805 -0.015438659 0.086633325 0.052419882
0.10654413 -0.04004094 -0.09389148 -0.06818391 -0.032263167 -0.19952828 -0.095787995 -0.05899156
-0.05931994 -0.019637056 0.15341385 0.13506825 0.1483898 0.04647105 -0.00093838375 0.09580175
0.0624058 0.04023159 0.09905357 0.02267167 -0.025241384 0.04394367 -0.0020578764 0.11645642
0.029591572 -0.018748052 0.06665714 0.11491882 -0.030847535 -0.016410101 -0.01681449 -0.094564535
-0.033457283 -0.010585783 -0.016711775 -0.08975574 -0.003863961 -0.051143397 -0.08498596 -0.07114634
-0.071789615 0.045281887 -0.03000014 0.032764398 -0.04942247 0.018313317 -0.085707106 -0.071630806
-0.01718521 -0.019238811 -0.20599048 -0.006979152 -0.091948695 -0.026580404 -0.12879685 0.07685282
0.055335216 0.066231094 -0.033460174 -0.22936368 -0.009735535 -0.022291362 -0.030068576 0.042769868
0.036272395 -0.039910164 -0.0632467 -0.036388222 0.08230151 0.017651485 -0.0154516185 -0.025369866
0.027947009 -0.031164458 -0.021322751 -0.03218201 0.039558295 -0.074883714 -0.09661479 0.06783349
-0.08438333 -0.049576376 0.054518472 0.10524268 0.17501877 -0.0047383825 -0.08779915 -0.00046835298
0.011384567 -0.0036641462 -0.00038586644 -0.13046472 -0.12017297 -0.06233069 -0.079774566 -0.22787905
-0.11478591 -0.066102214 -0.04352913 -0.065866075 0.05957829 0.051662073 0.03263887 0.043057457

conv6.bias f4 [24]
00000000: d4cf b03c 6ba1 c9bd 5b75 ec3c 1bc0 03bd
00000010: e484 28be 06b3 1d3e fb6e 30bd 582b 303e
00000020: d889 a73d 034e 0abe 8b9f 3a3d 3754 113d
00000030: 5e73 b53d acb1 0f3d 3b93 99bd d193 5d3c
00000040: ba9c b03d b76c 033e 8e52 00be 6e9c 67bc
00000050: e54b e6bd ea9d 3bbd 76e8 ad3d abeb 313d
0.021583475 -0.09845241 0.028864553 -0.032165628 -0.16456944 0.15400323 -0.04307459 0.17204034
0.081805885 -0.13506322 0.04556231 0.035480704 0.08859895 0.03508155 -0.07498785 0.013524012
0.08623643 0.1283444 -0.12531492 -0.014136417 -0.112449445 -0.045804895 0.08491604 0.04343764

conv7.weight f4 [24, 24, 3, 3]
00000000: a26a 0f3d d10e a83d 9696 2e3d 4f06 0a3d
00000010: 4344 cb3d 2b15 1c3d 51f1 243d 26d4 cbbc
00000020: 343e 14bc 1ca9 853c a020 f33b 1a7f 473b
00000030: 5f21 d4bc 5155 7d3d bab1 383d 2c73 bf3c
00000040: debe a3bc 2244 d53b 74da ebbc f546 143b
00000050: adf1 92bc e003 a93c 0cdc 883c 93e8 65bc
00000060: 9025 383d 4fdd 513d db78 803b 609f d63c
00000070: 4328 c1bc b246 4e3c 206a 6abc 4b88 87bd
00000080: e798 a63c ef75 03bc 2a94 d43c 9e26 473d
00000090: 0aed c4ba c8dd bfbc 0eff 7ebc 5860 873a
000000a0: fbdf adbd d13b 85bc dd87 043d 46c0 dc3c
000000b0: 9370 a53c 1cb1 f33c 9922 2d3d 15e4 d3bc
000000c0: 2290 023d 2838 d5bc 380c 253d 62ed f73c
000000d0: a8d5 90ba 8592 e23b 4be7 c53b cab8 2cbb
000000e0: ba1c f83c 88ac db3a c6ab ca3d efc0 43bc
000000f0: 7553 963d 693c 503c a7c9 ab3c 9d21 2bbc
00000100: b9b8 84bc ef93 1a3d 379c 0abd 42fe 473e
00000110: 6021 0a3d 7754 bd3c 4b38 d837 5b05 0b3b
00000120: 3951 8ebc 3bd0 8dbd 9961 d0bd e1cd ba3c
00000130: eb1c e83d a63a 91bd 3f8e 13bd d775 923d
00000140: 8726 95bc 6287 93bc 92b1 63bc 8694 27bd
00000150: 59a9 343c de0d 2bbe 2c2c 3abc 5772 6cbd
00000160: 1af0 fb3b 11fe 3dbc 9a1c dfbc afe5 b33c
00000170: a628 e23b e3bc e8bb 2862 47be 6695 1cbd
00000180: c272 41bd f729 9b3c 5eb8 94bc 88b8 34bd
00000190: 6762 053c 9f8e ba3c d4f7 42bd 6503 65be
000001a0: 8113 863c bd95 14bb 13f3 23bd fba7 d53b
000001b0: b0a4 633c 1293 62bd 60b1 cebc e0e9 1fbb
000001c0: eb11 093e c1b9 cf3c 8caa 1d3c a410 2c3d
000001d0: 78ad 70bb 1131 b33c 019c 2e3d 5c49 aa3d
000001e0: 3a47 24bc e6bc 5ebe 3ccc 903d 7645 c8bb
000001f0: 2470 36bd 7136 e83c 6c38 223c 5aab d93c
00000200: fabb 3b3b 5b5b b43c 62e1 3dbe b380 933c
00000210: 7846 febb 5aac 173b 7b18 79bc 96f1 7ab8
00000220: f7b3 173d dfd0 173d 75ed 33bc 1777 eebd
00000230: 71a2 bc3c 68a1 b83c a4ed 093c 5a45 193d
00000240: d22b 793d 5e27 e3bc 28d8 85bd 94e0 3e3d
00000250: a381 cebe 3447 07bd d1ec a43d b822 533d
00000260: b4c4 16bc 1c50 eabc 0a48 eebc d39e 4cbd
00000270: 134b 843c 68b5 a0bd 8ff1 2dbd 9bb0 1abd
00000280: cd95 77bc 475b 29bc 2d59 b4bb 15b7 e6bb
00000290: 79e3 743d eec1 913c ad26 64bd fd29 343c
000002a0: e244 f73c 8cea b83c 9e7c e0ba 7c3f 0c3d
000002b0: 78b6 053c 0512 dfbb b391 8a3d 3bde 83be
000002c0: dabb a13d 9b8f 473b 4fe9 62b9 039e 983c
000002d0: aa48 dd3c 4a8b b23b a3bc 263c 076d 333d
000002e0: 603b 23be b6f9 cebb 3263 ed3b 34ad 073d
000002f0: 17fc 34bc 0fdf d43c 49a1 de3c 65f3 9abd
00000300: e1cb 2bbb a386 253e b67d edbc 9990 96bc
00000310: 59e4 c7bc c409 bb3c 9e6a 683b 2380 3e3d
00000320: 907f 073d 6977 6a3d 7060 0c3e a8ee 193d
00000330: 2f20 213d a229 c53c dd2d 8d3c 48ba 103c
00000340: 25af 383c be36 fc3a 408b 11bb cec3 aa3d
00000350: 13a3 263c 95fd acbc 0320 d6bc a0bd bbbb
00000360: f4e8 1e3d cf69 8b3c ddb9 0ebd 9817 3abd
00000370: e1ac 8a3d 1f3d ae3c f15c 703c 411b bb3b
00000380: 695a bebb 8461 2c3c c4c0 c8bc 5db8 d739
00000390: 6fa1 d6bc e708 1dbe ae4f 39bb aee9 ccbc
000003a0: a384 1abc 24d7 143c 04a0 873b 54f3 023c
000003b0: 083c b83a dda8 003d dda9 b63c 399b 023d
000003c0: c946 59bd 1bff d93c a3a4 95bd 036d 873c
000003d0: 59aa cf3c 903a 2c3d 761d 1bbd 26ea 97bd
000003e0: a793 1f3d 2e15 98bc b6f0 88bc e328 0e3d
000003f0: 2bc6 16bc 8ed1 31bc ab7e b53c c9b5 f63a
0.035013802 0.08205951 0.04262408 0.033697423 0.09925129 0.038106125 0.0402692 -0.024881434
-0.0090480335 0.01631599 0.0074196607 0.0030440749 -0.025894819 0.061848942 0.04509137 0.023370348
-0.019988474 0.006508366 -0.02879069 0.0022625301 -0.017937506 0.02063173 0.016706489 -0.014032501
0.044957697 0.051236447 0.003920657 0.026199043 -0.023578769 0.012590097 -0.014307529 -0.06617793
0.020336581 -0.008023723 0.025949556 0.048620813 -0.0015024256 -0.023421183 -0.015563739 0.0010328395
-0.084899865 -0.016263874 0.03235613 0.026947152 0.020195281 0.029747538 0.042269323 -0.025865594
0.031875737 -0.026027754 0.040294856 0.03026456 -0.0011050003 0.006914439 0.006039535 -0.002635526
0.030287135 0.0016759792 0.098960444 -0.011947854 0.07340137 0.012709715 0.020970179 -0.010445026
-0.016201364 0.037738737 -0.033840384 0.19530585 0.033723235 0.023111565 2.577542e-05 0.002121291
-0.017372714 -0.069244824 -0.10174865 0.022803249 0.11333641 -0.070912644 -0.03602433 0.071513824
-0.018206848 -0.018008891 -0.0138973165 -0.040913127 0.011026704 -0.16704509 -0.01136307 -0.05772623
0.0076885344 -0.011596219 -0.027235318 0.021960108 0.0069018183 -0.007102595 -0.19471037 -0.038228415
-0.047228582 0.018940909 -0.01815432 -0.044121295 0.008141137 0.022773085 -0.04759963 -0.22364576
0.016366722 -0.0022672259 -0.040026736 0.006520269 0.013894245 -0.05531604 -0.025231063 -0.0024400875
0.13385741 0.025357129 0.009623181 0.042008057 -0.003672449 0.021873983 0.042629246 0.083147734
-0.010026747 -0.21751747 0.070702046 -0.006111796 -0.04454054 0.028346272 0.009901147 0.026570965
0.0028645978 0.022016218 -0.18543008 0.018005705 -0.0077598654 0.00231435 -0.0152035905 -5.982964e-05
0.037036862 0.03706443 -0.010981907 -0.11643808 0.023026677 0.022537902 0.008418474 0.037419654
0.060832806 -0.027728733 -0.06535369 0.046600893 -0.4033328 -0.03302689 0.08052982 0.051546782
-0.009202171 -0.028602652 -0.029087085 -0.049956154 0.01614908 -0.078471005 -0.042466696 -0.03776608
-0.015111399 -0.010336704 -0.0055037946 -0.007040868 0.059787247 0.017792668 -0.055700947 0.010996339
0.030184213 0.022572778 -0.0017126983 0.03424023 0.00816118 -0.006807568 0.06766071 -0.25755486
0.07897158 0.0030450586 -0.00021639954 0.018630033 0.027012188 0.0054487335 0.01017681 0.04380515
-0.15940619 -0.006316389 0.007244491 0.033124164 -0.011046431 0.025985269 0.027176516 -0.07565955
-0.002621405 0.16164641 -0.028990608 -0.018379496 -0.024400877 0.022831805 0.003546394 0.04650892
0.033080637 0.057242785 0.13708663 0.037581116 0.039337333 0.024067704 0.017233783 0.008833475
0.011272226 0.0019242389 -0.0022208244 0.08338128 0.010170716 -0.021117011 -0.026138311 -0.005729392
0.03879638 0.017018227 -0.03484522 -0.045432657 0.06771255 0.02126938 0.014670596 0.005710036
-0.0058091176 0.010521296 -0.02450598 0.00041145357 -0.026200024 -0.15335427 -0.0028276253 -0.02501377
-0.009431037 0.009084497 0.0041389484 0.007992584 0.0014055977 0.03141104 0.022297794 0.031886313
-0.05304602 0.026610902 -0.073067926 0.016531473 0.025349783 0.042048037 -0.037869893 -0.07417707
0.03895917 -0.018564787 -0.016716342 0.03470696 -0.00920252 -0.010853184 0.022155127 0.0018822487

conv7.bias f4 [24]
00000000: b7c0 63be ce8c 683e 1cdb 513e 7799 2b3e
00000010: 7afd 8ebd c4cb 35be 19d8 0f3e dbc4 a23d
00000020: 9b0d 53be 1e0f 333e 1428 45be 9e23 f8be
00000030: 0783 ed3d 7bce 053e a404 1d3e 65ba ba3d
00000040: cda5 5f3e a61d 0f3e 475a 193e 5842 523e
00000050: bdc4 153e e34d 7b3e 0948 f83d 6f6e aebd
-0.22241484 0.22709963 0.2049374 0.16757761 -0.069819406 -0.17753512 0.14047278 0.079477035
-0.20610659 0.17486235 -0.1925357 -0.48464674 0.11597257 0.13067047 0.15333802 0.09117583
0.21840592 0.13976154 0.14975844 0.2053312 0.14625831 0.2454143 0.121231146 -0.08517157
